MLOps_DTU_project/models/model_checkpoints/trained_model_Session1_04012024-175402.pth (torch, 447038 bytes, 6 tensors)

cnn1.weight f4 [32, 1, 3, 3]
000000 22 7a 98 3e da a4 15 bd 64 90 5e 3e 8d 1b 7f 3e
       0.2978068 -0.036534168 0.21734768 0.24912854
000010 e0 8c 9f 3e a6 4a a4 3d 22 bf a3 3e 38 84 8e 3e
       0.31162167 0.080220506 0.3198176 0.2783525
000020 51 46 98 bc f2 bd cb be af 5a 98 be 8a 63 65 3e
       -0.018588217 -0.39793354 -0.29756686 0.22401252
000030 e9 7c 26 3e 87 b4 b7 3d d5 08 8a be 69 8b 22 3d
       0.16258587 0.0896998 -0.26959863 0.039683733
000040 ba 6f 16 3e 3f 5c 90 3e c1 cf d4 3d c1 ab a7 be
       0.14691058 0.28195378 0.103911884 -0.32748225
000050 33 42 77 3e 0c 1a 32 3e ac 28 a0 3e 40 bc 81 3e
       0.24146347 0.17392749 0.3128103 0.25338936
000060 9a fd 36 3e ba b5 82 3e 71 27 4a 3e b7 42 6f bc
       0.17870179 0.2552927 0.19741608 -0.014603308
000070 94 c4 3a 3e 9b b6 85 3e 8c f9 bd be bb 47 29 be
       0.18239051 0.2611588 -0.37104452 -0.16531269
000080 99 d8 1b 3e c8 80 c6 be 77 c6 8d 3e ed dd 38 bd
       0.15219344 -0.38770127 0.2769048 -0.04513352
000090 ce 21 6b bc c4 6c d0 3d b2 e2 ed 3d fb bc 83 be
       -0.014351321 0.101769954 0.11615504 -0.25730118
0000a0 94 39 18 3d d0 ea 35 3e ee ce 90 bd 6e 9c 8f bd
       0.037164286 0.17765355 -0.07070719 -0.070122585
0000b0 0e e4 0e bd 0a 08 2b be e8 4c fe bd 5d 12 8b 3e
       -0.03488546 -0.16702285 -0.124170125 0.27162448
0000c0 dc 6c 7a bd 87 02 3d 3e b7 a4 7b 3e 5f 9a 6c 3e
       -0.061138973 0.18457995 0.24574552 0.23105763
0000d0 80 c3 80 3d 49 74 8f 3e 43 ce 8f 3e 19 08 6a be
       0.06287289 0.28018406 0.28087053 -0.22854652
0000e0 51 6e 11 be 2a 20 63 be 76 4a 97 bd bc 03 4c 3c
       -0.14202239 -0.22180238 -0.07387249 0.012452062
0000f0 bb 11 3f bd ac b7 9d be 20 e1 9a 3e 63 53 c1 be
       -0.04664777 -0.30804193 0.30249882 -0.37758932
000100 1d 7d 52 be 22 ad 9e 3e a2 4a df 3d ff 01 b0 3d
       -0.2055554 0.30991465 0.10902907 0.08594131
000110 c4 a4 36 3e fb 09 3e 3d ff 24 85 3e 5f ba 8b be
       0.1783629 0.046396237 0.26004788 -0.27290627
000120 11 5b 5f 3e 1d 0d 84 3e 3a 9f e3 bd 4f c3 a3 be
       0.21812083 0.25791255 -0.111143544 -0.31984946
000130 22 ac 9e 3d 7a de 1c 3e 6b 67 cd be f4 8d 6a 3e
       0.077476755 0.15319243 -0.40117964 0.22905713
000140 33 9d d6 bc 24 6b 9f 3e d2 eb 83 be 2b fb 9a be
       -0.026198005 0.3113643 -0.25765854 -0.3026975
000150 1a da 8f bc ce c2 b5 be 4f a0 38 3e e7 35 24 be
       -0.017560054 -0.35500187 0.18029903 -0.16036187
000160 c7 0f 7f bd b2 95 9c bd 18 7a 90 3c 4d 1f 7d 3e
       -0.062270906 -0.076457396 0.017636344 0.24718972
000170 91 81 aa be db 5a 1a 3e 0e bd 4c bd eb 8d 99 3e
       -0.33301976 0.15073721 -0.049984984 0.29991087
000180 aa c1 94 bc 1e 60 e0 3d 77 0d 7f be 01 5f 53 be
       -0.018158752 0.10955833 -0.2490748 -0.2064171
000190 5e 98 4d 3e b1 00 be be 66 53 95 be 7d 13 9d be
       0.20077655 -0.37109903 -0.2916519 -0.3067893
0001a0 83 05 e5 3d c8 bb 99 3e 32 70 72 be 35 57 8a 3e
       0.11182692 0.30026078 -0.23675612 0.2701966
0001b0 e1 0f c9 3a eb 6b 17 be b0 9a 5c bd 59 c2 20 be
       0.0015339815 -0.14787261 -0.05385846 -0.15699138
0001c0 ae 32 8b 3e 33 5b 29 be 2f 01 24 3e 79 d1 b6 bd
       0.27187103 -0.16538696 0.16016077 -0.089266725
0001d0 f5 e2 c6 bd c7 aa a4 3e cc e2 0c 3e 44 ac 51 3d
       -0.09711257 0.32161543 0.13758391 0.051189676
0001e0 e8 a4 69 3e 99 24 96 be 6a 4c 87 3e d1 67 a4 bd
       0.22816813 -0.29324797 0.26425487 -0.08027614
0001f0 c2 8e 38 3e fe 35 87 3e 50 ce 6c be a0 72 a1 3e
       0.18023208 0.2640838 -0.23125577 0.31532764
000200 1f f6 cf bd d5 34 22 be 72 7b d6 3d bd 39 8e be
       -0.10154366 -0.15840466 0.10472764 -0.27778426
000210 aa 2e b4 bd ca a1 17 be ea 1f 8b be 63 49 8a bd
       -0.08797963 -0.14807811 -0.27172786 -0.06752279
000220 93 7a b5 be 4d bf b6 bc cc 6d 75 3e 05 e1 6a be
       -0.3544508 -0.022308016 0.23967665 -0.229374
000230 2e 23 3c 3c ac 7b 9d 3e c4 8f 96 3e 77 d3 12 3e
       0.011482997 0.30758417 0.2940656 0.1433848
000240 e3 f6 c3 3d 77 57 1f 3e 5e 55 84 bd 5c a5 f4 3c
       0.09568574 0.15560709 -0.06461595 0.029864006
000250 07 a7 5b bd 2d 21 74 3e 30 cb 79 bd 94 15 88 be
       -0.053626087 0.2384078 -0.06098479 -0.26578963
000260 53 ec 3a be 86 ba 84 3e 1a 49 43 be 04 45 86 3e
       -0.18254213 0.25923556 -0.19070855 0.2622453
000270 18 fc 15 bc 16 d3 4a 3e 17 da 94 be f6 bc 2c 3d
       -0.009154342 0.19807085 -0.2907264 0.042172395
000280 2e 99 93 bd 8f e9 cf 3d 4c 7e ac 3e f8 5e 77 3e
       -0.07206951 0.1015197 0.33690107 0.24157321
000290 ef 50 5f be 8d 25 93 3e 51 7a 7d be 7a 0c a0 bb
       -0.21808217 0.28739586 -0.24753691 -0.0048843
0002a0 bd 0f 85 3e f4 45 51 be aa 49 81 3e 10 e4 ac 3d
       0.2598857 -0.20436841 0.25251514 0.08441937
0002b0 f5 cc 92 3b cc 8c 98 be d7 2e 28 3e be a7 5a 3e
       0.004479999 -0.2979492 0.16424118 0.21353051
0002c0 15 3c a1 3e 99 e2 96 3e 83 e6 19 3e a9 c5 2a 3e
       0.3149115 0.29469755 0.1502934 0.16676964
0002d0 18 50 46 be 8c 7a bf be 57 89 87 be 2a e6 06 3e
       -0.19366491 -0.37398183 -0.2647197 0.13173738
0002e0 68 a6 8c 3e 24 50 38 3e f6 26 4c be 82 9a 4c 3e
       0.27470708 0.17999321 -0.19936737 0.19980815
0002f0 26 22 b9 3d 8f 2d fd 3d 2d 61 ba 3e cd cf b0 bd
       0.090397164 0.12362205 0.36402264 -0.08633385
000300 ec 15 62 3b e6 15 85 be ce 75 08 bd 73 e3 a3 be
       0.003449793 -0.2599327 -0.033315472 -0.32009467
000310 86 d6 4e be c2 7d 64 bd 5b f4 aa be fb e9 c8 bd
       -0.20199022 -0.055783994 -0.33389553 -0.09810253
000320 5f 70 c6 bd 9e 8c e4 bd 82 9f 8d be 1e 64 0a 3e
       -0.09689402 -0.11159633 -0.27660757 0.13514754
000330 9a 66 a3 3e 27 09 9b bd 88 31 60 bb 15 46 17 be
       0.31914216 -0.07570105 -0.003420921 -0.14772828
000340 e7 fe 33 be d2 d2 d6 3d 6e 9f d1 bd bc 9e 1f 3e
       -0.17577706 0.104894295 -0.10235487 0.15587896
000350 83 60 3b bd fa 9f ac 3e 5d dd 80 bd c1 c4 31 be
       -0.045746338 0.33715802 -0.06292222 -0.17360212
000360 7e 82 a1 3e 81 06 cd bc e5 97 8e be 0c fd a9 3d
       0.3154487 -0.025027515 -0.2785026 0.08300218
000370 c0 68 93 be 2f 2e ed 3d 74 9d 84 be d0 ab 2e 3e
       -0.28790855 0.115810744 -0.25901377 0.17057729
000380 36 c0 b1 be 58 ac fd 3d 76 96 06 3b 0b 80 90 3e
       -0.34716958 0.123863876 0.002053646 0.2822269
000390 bd 9b 3d be 0b 7b 26 bd 04 41 9b 3d 35 77 5d 3e
       -0.1851644 -0.040644687 0.0758076 0.21627505
0003a0 f8 70 82 3c 2c 80 5b bd c8 d0 1a 3e fa d0 51 be
       0.015923008 -0.05358903 0.15118706 -0.20489874
0003b0 6b cf 14 bd 63 55 9e be f7 2b a1 be 26 2e 46 be
       -0.03633062 -0.3092452 -0.31478855 -0.19353542
0003c0 1b 3f 8a 3e 26 19 a2 be 16 9d ac 3e 71 9c 96 3d
       0.2700127 -0.31659812 0.33713597 0.073540576
0003d0 2e 67 02 3e 9c b1 3e 3e 76 af 67 3e 8d 55 62 3d
       0.12734672 0.1862244 0.22625527 0.05525737
0003e0 53 26 7b be 84 a7 7e ba 73 37 50 3d 6e 57 d9 3c
       -0.24526338 -0.0009714293 0.05083413 0.026530948
0003f0 1e 2a f7 3d 52 86 9d bd 23 96 cf be aa 54 bf 3e
       0.1206858 -0.07691635 -0.40544233 0.3736928

cnn1.bias f4 [32]
000000 00 37 53 be 54 ca ac 3d 61 d4 90 be e2 0e 84 3e
       -0.2062645 0.084370285 -0.28287032 0.25792605
000010 41 f2 3a bc fe eb 72 bd 42 3e 98 bd 3d 19 5a 3d
       -0.011410297 -0.05930709 -0.0743375 0.053246725
000020 ae 4d 5b be 15 65 73 3e ea c3 90 3d 86 3d 75 3e
       -0.21416351 0.23769028 0.07068618 0.2394925
000030 66 24 1c bd b1 f0 a4 be bc a8 7a 3e b4 30 3a 3e
       -0.03812065 -0.32214883 0.2447843 0.18182641
000040 34 be fa 3d aa 56 67 be 5f 94 37 be eb 91 6c 3e
       0.122433096 -0.22591653 -0.17927693 0.23102538
000050 67 21 e0 3d cb 4a 48 be c9 09 67 3e 9c b7 92 3e
       0.10943871 -0.19559781 0.22562326 0.28655708
000060 e6 9b 83 bd ea b2 64 be 21 d2 7e be 36 1e 4b 3d
       -0.0642622 -0.22333875 -0.24884845 0.04958936
000070 33 cd 28 be 3f 76 08 3e 3e 1c d0 bc 77 ff 84 be
       -0.16484527 0.13326357 -0.025404092 -0.25976154

cnn2.weight f4 [64, 32, 3, 3]
000000 0f b8 96 bd e2 fc 5f bd 74 21 b8 bb 7d 49 01 be
       -0.07359325 -0.054684527 -0.0056192223 -0.1262569
000010 fa 22 9b bd 26 85 b5 3b c8 47 b9 bd 7f dd 56 bc
       -0.075750306 0.005539554 -0.09046894 -0.013114332
000020 81 70 8c 3d 3f f2 de 3b 41 85 67 bc 7a 67 27 3d
       0.06857396 0.0068037803 -0.014130891 0.040870167
000030 9a 0e 68 3c d8 f5 ac 3c 86 d5 70 3d fd 0b ec bc
       0.0141636375 0.021113321 0.05879738 -0.02881431
000040 d8 13 8c 3d 8b 17 29 3c 00 a9 c5 bd ef 91 43 bd
       0.068397224 0.0103205545 -0.09651375 -0.047746595
000050 73 87 98 3c 65 73 ed bd 77 71 e8 3c 4d 1b 6e 3b
       0.018619275 -0.115942754 0.028374417 0.003633219
000060 b5 8f b4 bd b1 da 8d bc 0f 94 3f 3d 68 f3 39 ba
       -0.088164724 -0.017316194 0.04677206 -0.00070934603
000070 ad bd 58 bd 2a f5 73 3d a8 fe 33 bd 6e c0 59 3d
       -0.052915264 0.05955998 -0.04394403 0.05316203
000080 e0 3c 4b 3d 9f 09 6a 3c f0 d0 a9 bb 77 42 f7 bc
       0.0496186 0.01428452 -0.005182378 -0.03018306
000090 a1 d8 64 bd 35 11 7e bd bd cd 3f bd 96 b3 06 bd
       -0.055870656 -0.06202813 -0.046827067 -0.03288611
0000a0 37 4c 58 3c c5 d5 1e 3d 13 2d c2 bb 67 dc d5 3c
       0.013201765 0.038778085 -0.0059257834 0.026106073
0000b0 18 b7 22 3d 44 21 7e bd e6 9e 2f 3c f2 81 8f 3d
       0.039725393 -0.062043443 0.010719037 0.07007207
0000c0 e7 23 6b bd 79 59 7e bc 38 47 e5 bc 9e 95 72 bd
       -0.057407286 -0.015524262 -0.027988061 -0.059224717
0000d0 06 b3 cb 3c 6a 91 1b 3c 44 bf 51 bc d7 41 dd 3d
       0.024865638 0.009495119 -0.012801949 0.108035736
0000e0 e2 e7 74 3c b5 df b4 3d 69 de 84 3d 6d 69 36 3d
       0.014947863 0.08831731 0.06487734 0.044534136
0000f0 92 96 09 3e 91 4d 24 3d 30 e8 83 3c 1b 7b 53 bd
       0.13436344 0.040113036 0.016101927 -0.051631074
000100 5d 7e ba bd b9 f4 ad 3d 99 c9 16 bd f3 ed 0f 3d
       -0.09106133 0.08493943 -0.036813352 0.035139035
000110 e1 8d 3d 3d 0a 59 ea 3b 8d fe 04 3d c1 f4 40 3d
       0.046277884 0.0071517276 0.03246932 0.047108416
000120 7f b4 33 bd f5 91 9b bd c5 06 b6 3a df 2d ac bd
       -0.043873306 -0.075961985 0.0013887516 -0.08407187
000130 54 9a 35 3d 9b 92 c4 3c 65 92 32 3d 1d ac 05 bd
       0.044336632 0.023995688 0.043596644 -0.032634843
000140 9f 03 a2 bc 60 68 f5 bc f2 77 84 3c 49 fd 61 bb
       -0.019777117 -0.029956996 0.016170476 -0.0034483245
000150 24 bd 36 bd 62 80 f8 3c d2 1c 7b bc 57 70 10 3d
       -0.044613972 0.030334655 -0.0153266955 0.035263386
000160 48 8d 34 bd f6 53 f6 3c 7c 62 2e bd b4 65 45 bd
       -0.04408005 0.030069333 -0.04257439 -0.048192695
000170 7e cb e5 3a 8b 89 dd bd 58 18 5e bd da 2e 59 3c
       0.0017531959 -0.1081725 -0.054222435 0.013255799
000180 30 fc cc 3c d1 fb ac bc c4 a0 26 3d ed a4 17 bd
       0.025022596 -0.02111617 0.04068066 -0.03702252
000190 1f 9e 6a 3d fe 07 ef bb e1 74 6f 3c 17 d3 57 3d
       0.057279702 -0.007294654 0.014615268 0.052691545
0001a0 69 dd 3a bd ec 62 61 3d d3 45 9c bd fa 86 2c bd
       -0.04562131 0.05502598 -0.076305054 -0.04212091
0001b0 8e d7 89 3b 50 03 32 bd 2b 4d 0f 3c 47 6d 90 bd
       0.0042066043 -0.04346019 0.008746426 -0.07052093
0001c0 ee ed 27 bc 7f e9 26 3c 47 94 e4 b9 09 30 57 3c
       -0.010249598 0.010187506 -0.00043598024 0.013134011
0001d0 29 8d eb bc ab 89 f5 ba c8 fc ff bc 93 f6 5b 3a
       -0.028753834 -0.0018733045 -0.031248465 0.00083909294
0001e0 6c 09 98 bd 5c 53 4e 3d 97 4d 4a bd 87 47 3c bd
       -0.07423672 0.050372466 -0.0493904 -0.04596665
0001f0 2e 79 3d bd 52 89 ed bc 52 0a 56 bd 44 a5 c0 bc
       -0.046258144 -0.028996143 -0.052255936 -0.023516305
000200 01 07 82 bd 01 4e 19 bd d9 ef e0 bc 54 94 b0 bd
       -0.06348992 -0.037427906 -0.027458118 -0.08622041
000210 b3 56 c4 bb 46 b9 f9 3c 17 b1 16 bd 2a bb 82 bd
       -0.0059917807 0.030483853 -0.03678998 -0.06383355
000220 67 06 0f 3d 00 31 01 bd 1b fd a4 bc 0b 30 be 3c
       0.034918215 -0.03154087 -0.020140221 0.023216268
000230 32 93 f4 3c 95 bc 63 3c e8 b3 89 3b 1a b2 54 bd
       0.029855344 0.013899942 0.0042023547 -0.051927663
000240 16 bd 62 3d 70 4e c1 bc 62 5a 8a bd e2 d7 3e bd
       0.055356108 -0.023596972 -0.067555204 -0.0465926
000250 d1 49 ee bc 0a e3 9b bd f5 0e b8 3c 92 77 fc 3b
       -0.029087933 -0.07611664 0.02246807 0.0077046836
000260 ea bc c9 bd 80 c5 8d bd 67 19 9e 3b a4 9b 5e bd
       -0.098504856 -0.06922436 0.0048248055 -0.05434765
000270 3d fa 73 bd f8 29 29 bd 79 9d a7 ba 43 d9 8a 38
       -0.059564818 -0.04129979 -0.0012788019 6.620821e-05
000280 c3 1d 24 bd f2 98 de bc 32 96 a5 bd 7f 52 d0 3c
       -0.040067445 -0.02717254 -0.08085288 0.025429962
000290 a4 56 ff bd da e7 bf bd 34 03 9a bc 88 81 15 3c
       -0.12467697 -0.09370394 -0.018800355 0.009125121
0002a0 13 e5 e5 bd 58 d5 a0 bc 44 b4 68 3c 04 32 86 bc
       -0.11225333 -0.01963298 0.014203135 -0.016381271
0002b0 af 1c 63 bd cb 52 ce 3c ad bb 31 bd c1 51 d6 bc
       -0.055447277 0.025185963 -0.043391872 -0.02616203
0002c0 27 a1 80 bc c9 d2 a4 bd 42 1b b0 3c f8 30 f2 3c
       -0.015701843 -0.080480166 0.021497373 0.029564366
0002d0 0a 8a 1e 3c 43 58 89 3c bd a3 ac bc f6 c1 1a bd
       0.009676466 0.01676572 -0.02107417 -0.03778263
0002e0 49 b7 45 3d 97 09 86 bc 3a 95 f7 3c a8 1c 8f bc
       0.048270497 -0.016361995 0.030222524 -0.017469719
0002f0 4d 1f 8d bd de e7 a8 bb 5b 39 98 bd fd 33 f0 bd
       -0.06890736 -0.005154594 -0.07432815 -0.11728666
000300 9a 83 88 3d af 6e 83 bd 65 fa 1c be cd af 21 bd
       0.06665726 -0.064175956 -0.15329893 -0.039474297
000310 ed cf d0 bd b4 00 18 be e9 38 5f bd 98 cb 3c bd
       -0.10195909 -0.14844018 -0.054497633 -0.0460926
000320 cb 3a 64 bc 68 51 cd 39 d7 64 fe 3c 34 04 07 3d
       -0.013930033 0.000391613 0.031053944 0.032962993
000330 d4 eb 07 3d 14 66 5c bd b5 ab 81 bd 98 05 77 bc
       0.033183888 -0.053808287 -0.06331579 -0.015077017
000340 5e ed a4 bd 40 6d 9a bc 10 06 8a bd 15 4f 05 bd
       -0.08053087 -0.018850923 -0.067394376 -0.03254612
000350 9e 61 56 3d da 0a bc bd 60 b6 07 3d 8a c1 9e 3c
       0.05233919 -0.09181757 0.03313291 0.019379396
000360 f4 c9 fe bc 02 eb b4 bd 79 d3 2d bd 09 a0 22 bd
       -0.031102158 -0.08833887 -0.042438004 -0.039703403
000370 a8 e4 9d 3b 6e 46 5f bd cf 31 8f bd 87 65 19 bd
       0.0048185177 -0.054510526 -0.06991922 -0.03745034
000380 9b 18 11 bb 6b 04 8c bd 1c 97 a5 bd d6 8d ec 3c
       -0.002213991 -0.0683678 -0.080854625 0.028876226
000390 b5 67 cf bd a2 be 58 bd 57 b8 22 3d a1 9b 63 bb
       -0.101272024 -0.052916177 0.03972658 -0.0034730213
0003a0 19 33 78 3d 2a a7 c6 bc 4a dd a0 bd bd 90 b7 3c
       0.060595606 -0.024249632 -0.078547075 0.022407884
0003b0 ac 26 93 3c ff f7 10 ba 7d 6f 2c bd 7d 8a a1 3d
       0.017962776 -0.00055301184 -0.04209851 0.07887743
0003c0 a6 d7 18 bb 50 07 0c 3d f0 fb f4 3b 64 3f ec bc
       -0.0023321896 0.03418666 0.0074763224 -0.02883882
0003d0 79 2d db bd c8 74 d2 bc b5 49 dd bd 23 25 ad bc
       -0.107020326 -0.025690451 -0.10805074 -0.021135872
0003e0 99 d9 87 3d d3 d0 5d bd 7f ac 88 bd 87 0b 42 bc
       0.066333 -0.05415423 -0.06673526 -0.011843569
0003f0 14 ce 31 bc ad 2a c9 bd 3e 48 a6 3b 02 65 9b bd
       -0.0108523555 -0.09822593 0.00507453 -0.07587625

cnn2.bias f4 [64]
000000 f1 83 31 3d 01 b0 74 bd 2d 05 93 bc a5 c8 95 bd
       0.04333872 -0.059738163 -0.017946804 -0.073136605
000010 ae b0 70 bd 18 72 85 3d 44 cd 44 bd b2 05 59 3d
       -0.058762245 0.06515902 -0.04804732 0.052983947
000020 c7 d2 74 3d f9 11 82 bd fc e4 93 bd 9d 33 ec bc
       0.059771325 -0.06351084 -0.0722141 -0.028833205
000030 a8 8f 9c bc 33 e6 1a 3d 69 31 70 bc 44 ab aa 3c
       -0.01911147 0.03781719 -0.014660218 0.020833619
000040 11 3f 7c bc 87 e0 3c bc 78 34 29 bd 7f 41 93 bd
       -0.015395896 -0.011528141 -0.041309804 -0.07190227
000050 23 12 83 bd cb 75 26 bd 89 bb ce bc f9 cf 60 bd
       -0.06399944 -0.04063968 -0.025235908 -0.05488584
000060 77 7f 85 bd 23 24 74 3c 4c 31 3a 3d 26 25 13 3d
       -0.065184526 0.014901194 0.04545717 0.0359241
000070 80 10 b6 3b ae e1 46 3d 63 61 07 bc a5 21 29 3d
       0.005556166 0.04855507 -0.008262965 0.04129185
000080 36 72 f1 3c 46 46 8f ba 52 fb 18 bc f2 c7 3a bd
       0.029473405 -0.0010930977 -0.009337263 -0.04560084
000090 a4 58 62 bc d7 ba 92 3c c2 db 83 bc 37 0b 95 bc
       -0.013815079 0.017911358 -0.016096 -0.018193824
0000a0 63 5d ed 3c 07 9e fc ba ce b4 01 bb 3f e6 d1 bc
       0.028975194 -0.001927317 -0.0019791606 -0.025622485
0000b0 f0 0f bc 3c 3a 41 03 bd e0 94 2c bd ae ee a1 3c
       0.022956818 -0.032044627 -0.042134166 0.019767132
0000c0 27 ff 36 3d 25 99 99 3b fd da 1c 3d 7f 00 88 3b
       0.044676926 0.0046874457 0.03829478 0.0041504498
0000d0 ca a8 38 bd ab 29 fa bc 3d 16 81 bd d6 33 41 3c
       -0.045082845 -0.030537447 -0.0630307 0.011792144
0000e0 06 00 81 3b 72 32 07 bd a1 65 50 bd cd 5a 55 bd
       0.0039367704 -0.033007093 -0.05087817 -0.052088547
0000f0 99 bb 95 bc 65 25 95 3b a6 16 41 3c ea 94 6f bc
       -0.01827793 0.004551577 0.011785185 -0.014622906

fc.weight f4 [10, 9216]
000000 15 f1 b0 bb 2a e1 69 bd 6e 38 a3 bd d3 65 5b bc
       -0.005399833 -0.0570995 -0.079697475 -0.013390976
000010 dd e2 c2 bb 66 2e 35 bd 99 ca 6e bd de 7f b9 bc
       -0.0059474544 -0.044233702 -0.05829868 -0.02264398
000020 74 db ca bc ed 02 9c bc b6 de 46 bd a6 53 be bc
       -0.024762847 -0.019044364 -0.048552237 -0.023233246
000030 8b 68 16 bd bc f4 87 bd e7 06 c9 bb 59 95 87 3c
       -0.036720794 -0.06638476 -0.006134856 0.016550707
000040 29 0c 20 bc 98 a9 8c bc 6d 17 f8 bc 29 e4 25 bc
       -0.009768524 -0.017170712 -0.030284608 -0.010125198
000050 1e 78 e9 bc e8 ef de bc e7 d2 67 bd 80 f7 d6 bb
       -0.02849966 -0.027214006 -0.056597617 -0.006560266
000060 78 a0 08 bd 30 09 bc bc 78 c0 ae 3c 90 b0 0a 3c
       -0.03335616 -0.0229536 0.02133201 0.008464947
000070 f5 f6 b2 bc d7 64 4d bc 5f 03 14 bd 1b 52 24 bd
       -0.021846274 -0.012536249 -0.036136027 -0.040117364
000080 b5 3c 3e bb 43 a9 20 bd 88 82 bb ba ed f0 36 bd
       -0.0029027883 -0.03922392 -0.0014305869 -0.04466336
000090 66 05 69 bc a1 d0 06 3b 1c 71 75 3c dd 89 a2 bc
       -0.0142224785 0.002057113 0.014980581 -0.019841129
0000a0 0f f7 f7 3b 3f d7 2c bc 71 66 16 bd 32 15 47 bc
       0.0075672935 -0.010549366 -0.03671879 -0.012151049
0000b0 fb 5d 6f bc fb ef cd bc 66 62 65 bb 47 80 1e bb
       -0.014609809 -0.025138846 -0.0035001277 -0.0024185346
0000c0 43 60 5f 3b 56 42 a5 3b 79 08 f1 3b 76 8a cb 3c
       0.0034084476 0.0050433083 0.0073557463 0.024846297
0000d0 1e 80 c3 3c 21 a2 80 bd 19 ed ab bd 7e e2 e9 3c
       0.023864802 -0.06280924 -0.08394832 0.028550383
0000e0 3a 23 b4 3c 08 de ac bc 87 33 0a 3c cd c4 cd bc
       0.021989454 -0.021101967 0.008435137 -0.025118256
0000f0 89 58 16 bb d8 db 20 bc 51 01 93 ba e3 75 2e 3c
       -0.0022940955 -0.00981804 -0.0011215602 0.010648224
000100 a9 04 da bc 9c fd 8f bd d8 bc a2 bd 5b 26 55 3d
       -0.02661355 -0.07030794 -0.07946175 0.05203853
000110 7a 4f e5 3b ec 67 5d 3c 46 92 37 bc 85 55 d1 bc
       0.0069979997 0.013513546 -0.011204308 -0.025553474
000120 49 c1 cb bc 75 a9 56 3c 36 60 00 3d 45 d8 1f bc
       -0.024872439 0.013101925 0.031341754 -0.0097561525
000130 9c f5 51 bd 87 67 a2 bd 0e 0a e1 bc 6d 9e 58 3d
       -0.051259622 -0.079299025 -0.027470615 0.05288546
000140 08 86 2b 3d a9 87 95 3c 02 cf 8d 3b 26 0f de bb
       0.04187587 0.018253164 0.004327656 -0.006776708
000150 06 67 db ba 25 d4 08 ba 0b 29 85 bc 7b 96 9a 3c
       -0.0016739077 -0.00052196 -0.016254922 0.018870583
000160 16 ee 44 bd b2 34 c6 bc e5 a6 dc 3c 29 c3 2f 3d
       -0.04807862 -0.024195049 0.02693505 0.04291073
000170 fc 13 3e 3d 41 43 60 3d 68 3f 67 3d 19 82 f5 bc
       0.046405777 0.05475164 0.056456953 -0.029969262
000180 a8 6f 9c 3b 0e 16 c4 3b da c1 62 bc 59 10 8b 3c
       0.0047740526 0.0059840744 -0.013840163 0.016975569
000190 ab f1 16 bd 9a f5 b5 bc 6e 63 d0 3c 12 09 67 3c
       -0.036851566 -0.022211839 0.025438037 0.014101284
0001a0 76 9f 42 3d ad e7 60 3d fc f9 71 3b c1 de ed bc
       0.047515355 0.054908443 0.0036922684 -0.029036881
0001b0 38 be 54 3d 9e 77 40 bc 89 0b 63 bb 92 82 9c bc
       0.05193922 -0.011747269 -0.0034644327 -0.01910523
0001c0 c6 41 66 bd dd f1 a3 bd 27 a1 30 bd 7b 59 9f 3b
       -0.05621507 -0.08005116 -0.043122437 0.004862962
0001d0 f4 27 2c 3d 2f e9 9b 3c 0e 5f 2b bd c8 af a4 bc
       0.04203029 0.019032089 -0.041838698 -0.02010335
0001e0 6e b1 0e bc 4f 39 fa 3c 1a d6 79 bb 53 4c 51 bd
       -0.008709295 0.030544905 -0.0038122 -0.05109818
0001f0 4f 7b 80 bd 46 bb f7 bd 98 76 bc bd d2 b3 a8 bc
       -0.06273519 -0.120962664 -0.092023075 -0.020593558
000200 bf 5a 1f bd a2 e3 4f bd 70 c0 95 bc 79 3a b6 bc
       -0.0389049 -0.050754197 -0.018280238 -0.022244679
000210 b3 01 b0 bc 87 e0 0e bc 90 fb 5b bc 6e f3 67 bc
       -0.021485185 -0.008720524 -0.013426676 -0.014157159
000220 38 e2 a7 bd ab cb ce bd e8 cc d1 bd 02 10 9d bd
       -0.08197445 -0.1009744 -0.10244161 -0.07669069
000230 5f 97 92 bd 5b 14 00 bc c1 fb b8 bc dd 39 24 bc
       -0.07157778 -0.007817353 -0.022580983 -0.010023561
000240 22 03 48 bc e7 c0 d7 bc 3c b8 bb bc b9 98 28 bc
       -0.012207778 -0.0263371 -0.022914998 -0.010290318
000250 6e 6c b9 3b 87 22 6e bc 4c 67 f0 bc 99 c9 28 bd
       0.005658678 -0.014534599 -0.02934613 -0.041207884
000260 a6 f9 f8 bc 3f c8 86 bc 47 31 81 bb 33 90 a4 bb
       -0.03039248 -0.016452907 -0.003942642 -0.0050220727
000270 da fc 98 bb 6d 8e 9a bc f5 78 75 bc 36 f8 a5 b6
       -0.004668814 -0.018866742 -0.014982452 -4.9462788e-06
000280 7f d2 fd bb c3 e5 26 bb fa 8e 26 3c bd da 89 3a
       -0.0077460404 -0.0025466539 0.010165924 0.001051746
000290 58 12 07 bc b2 6a a7 bb 23 76 d7 bc 0b c9 1a bc
       -0.00824412 -0.0051091546 -0.02630145 -0.009447346
0002a0 c5 8c e6 bc 27 87 b0 ba ec 52 17 bb 30 4e 05 bb
       -0.028143296 -0.0013468013 -0.0023090197 -0.0020340793
0002b0 63 47 c0 37 75 d8 ae 3a a3 8c 98 3c 52 8f b4 ba
       2.2921426e-05 0.0013339656 0.018621748 -0.0013775623
0002c0 35 dd 08 bc 29 f6 1a bc cd 56 be bc 26 ed 45 bc
       -0.008353521 -0.009458103 -0.02323475 -0.012080466
0002d0 9e e8 bc bc 9e 2c cb 3b a8 9a a1 bc c6 43 a1 bb
       -0.02306014 0.006200387 -0.019727066 -0.0049214093
0002e0 df 09 bf bb 64 03 c5 bb e4 4b 67 bc 71 be 50 3b
       -0.005830034 -0.006012367 -0.014117215 0.0031851793
0002f0 45 2b 85 bb de 69 78 bc 27 8a b1 bb 87 10 33 bc
       -0.004063996 -0.015161959 -0.0054180804 -0.010929233
000300 c6 d5 58 3a 00 1d 21 ba f2 b3 c2 bb a6 11 70 3c
       0.0008271601 -0.0006145984 -0.0059418613 0.014652645
000310 19 b0 8a 39 f2 9f af 3a 3c 1e 5a bc 15 0c d9 bb
       0.00026452614 0.0013399108 -0.0133128725 -0.0066237547
000320 41 74 f6 b9 65 1f 1d bc 62 e0 91 bc 3c ea 9c 3b
       -0.00047007392 -0.009590005 -0.01780719 0.004788665
000330 2d 3b 1c bb ff 72 4e 3a 8e 62 9d bb 8f 4d 4c 3c
       -0.0023838982 0.0007875412 -0.0048030084 0.012469663
000340 14 c1 84 3c dc f2 2c 3c 20 54 da 3b 78 bc a4 bc
       0.016205348 0.010555949 0.0066628605 -0.0201094
000350 b8 c8 57 bc 48 37 f1 bb 3a eb ef bb 31 7d a3 3c
       -0.013170414 -0.0073613264 -0.0073217424 0.019957157
000360 a6 71 fb 3b c6 6d 7c bc 4c 80 f5 35 aa 79 59 3c
       0.00767346 -0.015407031 1.8291262e-06 0.013273636
000370 ed a9 0d bb d4 75 b3 bc 36 f6 37 bd ed c8 1d bd
       -0.0021616176 -0.02190677 -0.04491254 -0.038521696
000380 54 16 81 bc a3 cd 51 bc 42 27 26 3c ed 31 02 3d
       -0.015757717 -0.012805375 0.010141196 0.031785894
000390 bf 23 db bb e9 9e 8d bc 3a 50 9f bc e7 d3 43 39
       -0.006687611 -0.017287688 -0.019447435 0.00018675589
0003a0 93 f5 04 bd 3d f8 09 bd c5 ad 1f bd 43 d0 09 bd
       -0.03246076 -0.033684004 -0.03898408 -0.03364588
0003b0 24 a1 87 bc f6 45 7a 3c 23 cc 98 3b 94 32 bc 3c
       -0.01655633 0.015275469 0.004663007 0.022973336
0003c0 79 d0 4f bc c4 bb 15 bc c2 7b 0b bc 6c 33 56 bc
       -0.012683981 -0.009139005 -0.008513393 -0.013073783
0003d0 1d cf 1a bc d1 44 b5 bc f7 c5 94 bc 62 b5 10 bc
       -0.009448794 -0.02212754 -0.018160803 -0.0088323075
0003e0 34 c8 95 3c 7f 9e 99 3c e3 02 8b 3c 6e 96 f6 3c
       0.01828394 0.018752335 0.01696915 0.030101027
0003f0 10 1f 9c bc cc 3d 13 3b 28 95 14 3c 01 a9 de 3b
       -0.01905778 0.0022467254 0.009068765 0.006795049

fc.bias f4 [10]
000000 a8 c7 9d bb cb 3a 88 3c d4 6a 16 3c 36 ec bb bb
       -0.0048150606 0.016629597 0.009180743 -0.0057349456
000010 44 c8 0d bb a1 e5 e4 bb 0a de 4a 3c 0b 3c 8a 3c
       -0.002163426 -0.0069853817 0.01238204 0.016874334
000020 cc de 69 ba 2a 84 fa 3b
       -0.0008921444 0.0076451497
