model.pt (torch, 448372 bytes, 6 tensors)

weight f4 [32, 1, 3, 3]
0	0x3eb2ca36	0.349199
1	0x3bd012e5	0.0063499087
2	0xbe2fd5ba	-0.17171374
3	0x3e59ced7	0.2127031
4	0x3e13c3f8	0.14430225
5	0x3e9a1928	0.30097318
6	0xbe9f25a2	-0.310834
7	0x3e135d50	0.14391065
8	0xbe19bb45	-0.15012844
9	0x3e8d9724	0.27654374
10	0x3e86eb69	0.2635148
11	0x3ed490db	0.41516766
12	0xbe97a1ca	-0.29615623
13	0x3e0262cb	0.12732999
14	0x3e497c12	0.19676235
15	0xbeb369a1	-0.35041526
16	0xbef2adc6	-0.47398204
17	0xbdae5ef4	-0.085142046
18	0xbd9744bd	-0.07386158
19	0xbe61e6f4	-0.22060758
20	0xbe751f5b	-0.23937742
21	0xbde3eb5a	-0.11128874
22	0x3e80102c	0.25012338
23	0x3d0da3ee	0.034580164
24	0x3eaafc2b	0.33395514
25	0xbd00b151	-0.031419102
26	0x3ecaf940	0.39643288
27	0x3dc18804	0.09449771
28	0xbe71af28	-0.23601973
29	0xbddf53cb	-0.10904654
30	0x3ec8b8d6	0.3920352
31	0x3eb69583	0.35660943
32	0x3c1df0d0	0.009639934
33	0x3dbdf4a6	0.092751786
34	0xbe26af8e	-0.16277906
35	0x3eb2c17c	0.34913242
36	0x3e43888c	0.19095057
37	0x3e95dc35	0.29269567
38	0xbe79eb99	-0.2440628
39	0x3e52566b	0.20540778
40	0x3dcbaba8	0.0994485
41	0x3c09ea41	0.008417667
42	0x3d53167f	0.051535126
43	0xbdd9fba2	-0.10643698
44	0xbe6281fe	-0.221199
45	0x3ddb3a9c	0.10704538
46	0xbe62b898	-0.2214073
47	0x3e8a1383	0.2696801
48	0xbc8a918b	-0.016915103
49	0x3d425cca	0.04745177
50	0x3eb2b495	0.34903398
51	0x3ca3b9e7	0.019986106
52	0xbe8e640f	-0.27810714
53	0xbbc64bfc	-0.0060515385
54	0x3dc581e6	0.09643917
55	0x3ec31189	0.38099316
56	0xbe3943f2	-0.18092325
57	0x3e6f4cd8	0.23369157
58	0x3d40b78b	0.04705004
59	0xbec833be	-0.39101976
60	0x3d842826	0.0645297
61	0xbe17d171	-0.1482599
62	0xbc542d16	-0.012950202
63	0xbedab972	-0.4271961
64	0x3e43c54e	0.19118235
65	0x3e957ac4	0.29195225
66	0xbe6ffcdc	-0.23436302
67	0xbdaf8da3	-0.08571937
68	0x3e76bab8	0.24094665
69	0x3e0a679f	0.13516091
70	0xbde5e07c	-0.112244576
71	0xbe3f5e69	-0.18688358
72	0x3e175c1f	0.14781235
73	0xbe660f06	-0.22466668
74	0x3c3324c0	0.010934055
75	0x3e627071	0.22113205
76	0x3e368784	0.17825133
77	0x3ea0d595	0.3141295
78	0xbe6e2a07	-0.2325822
79	0xbe60d8c6	-0.21957693
80	0xbd393736	-0.04521867
81	0x3e2bb2ca	0.16767421
82	0x3ed47306	0.41494006
83	0xbc6a252f	-0.014291092
84	0xbdfdba52	-0.123890534
85	0xbe05b6fc	-0.13058084
86	0x3ebb4502	0.36576086
87	0xbeb4f6e7	-0.35344622
88	0xbeff5849	-0.49872044
89	0x3d7e44a3	0.062077176
90	0x3de9366a	0.11387332
91	0x3e592148	0.21204102
92	0x3ea8018b	0.32813677
93	0xbe3684e6	-0.17824134
94	0x3ea58b3a	0.32332784
95	0x3d34d3ef	0.044147428
96	0xbe991eaf	-0.29906222
97	0xbe09518e	-0.13410017
98	0x3cfb5b45	0.03068317
99	0x3e0f39ad	0.13986845
100	0x3e9612be	0.29311174
101	0x3e0aed2a	0.13567033
102	0x3ec2a3eb	0.38015684
103	0x3e992f9a	0.2991913
104	0x3ce205eb	0.027590713
105	0x3e40ec2a	0.1884009
106	0x3e1d8c9c	0.1538567
107	0xbe0284c9	-0.12745966
108	0xbe940bef	-0.28915355
109	0xbe5e2367	-0.21693192
110	0x3e738e68	0.23784792
111	0x3da1670a	0.07880981
112	0x3eaabd29	0.33347443
113	0xbe965aca	-0.29366142
114	0xbdd0611a	-0.10174771
115	0xbe963509	-0.29337338
116	0x3ebd15b2	0.36930615
117	0x3e8419d1	0.25800946
118	0x3e8543b3	0.26028213
119	0xbe895406	-0.26821917
120	0x3e5d32de	0.21601436
121	0x3e7cf004	0.24700934
122	0x3ce7853a	0.02826177
123	0x3e2906a8	0.16506445
124	0x3e644545	0.22292049
125	0xbe4f922e	-0.20270607
126	0xbca01c05	-0.01954461
127	0x3e4959a0	0.19663095
128	0xbf132b18	-0.5748763
129	0x3f1534c3	0.58283633
130	0xbe3849c7	-0.17996894
131	0xbecc7fdf	-0.39941308
132	0x3f0bf7f0	0.546752
133	0x3e32e72f	0.17471002
134	0xbf0b100a	-0.5432135
135	0x3ad8303f	0.0016493871
136	0x3d6d3c24	0.057918683
137	0x3efe6b84	0.49691403
138	0xbd41f5aa	-0.047353424
139	0x3d3889bc	0.04505323
140	0x3ea9cb84	0.33163083
141	0xbe9083b9	-0.28225496
142	0xbd3ee11e	-0.046601407
143	0xbed0082d	-0.40631238
144	0x3e36b472	0.17842272
145	0x3ca4145a	0.020029236
146	0xbe9d298f	-0.3069577
147	0x3da2f785	0.07957367
148	0xbebdb2cc	-0.37050474
149	0xbdc2e11c	-0.095155925
150	0x3e5bf77b	0.21481125
151	0xbea426c1	-0.32060817
152	0xbec646df	-0.38725945
153	0xbb8c5138	-0.004282143
154	0x3de3ca65	0.11122588
155	0x3e24dc4a	0.16099659
156	0xbe7db8ef	-0.24777578
157	0x3e54e13d	0.20789047
158	0x3e7805ab	0.24220912
159	0x3cf4f0b7	0.029899938
160	0x3e67038f	0.22559951
161	0x3e8b2fa5	0.27184787
162	0xbec8cd20	-0.39218998
163	0xbe881b92	-0.26583534
164	0x3ee6d3a5	0.45083347
165	0xbf0d8c7e	-0.552925
166	0xbe7ed87c	-0.2488727
167	0x3eb8f74b	0.3612617
168	0xbeb10159	-0.3457134
169	0x3d0e3f26	0.03472819
170	0x3ecc1c1e	0.39865202
171	0x3e560eb9	0.20904054
172	0x3eb8ce58	0.36094928
173	0xbe92112a	-0.2852872
174	0x3e267a73	0.16257648
175	0x3e959037	0.2921159
176	0xbc8fd8b4	-0.017559387
177	0x3ea76816	0.326966
178	0x3e79f283	0.24408917
179	0x3e74424e	0.23853418
180	0xbe937709	-0.28801754
181	0xbe964eff	-0.29357144
182	0x3cdf34fd	0.027246946
183	0x3da062e4	0.07831362
184	0xbd8c647a	-0.06855102
185	0x3d4d39f2	0.05010409
186	0xbcc254d5	-0.023722092
187	0xbe85e762	-0.26153094
188	0xbee17630	-0.44035482
189	0x3ed87215	0.42274538
190	0x3ec5c713	0.38628444
191	0xbb685be3	-0.003545516
192	0x3eb53671	0.35393098
193	0x3eddfe5d	0.43358126
194	0xbd9d1626	-0.0767024
195	0x3eb81887	0.35956213
196	0x3e90e852	0.28302246
197	0xbeaa6403	-0.33279428
198	0x3cba5bf7	0.02274893
199	0x3ee91739	0.4552553
200	0x3ec25ecb	0.37962946
201	0xbd922b42	-0.07137157
202	0x3e35dd89	0.1776029
203	0x3d649ed5	0.055815537
204	0x3deacc5d	0.114647605
205	0x3db05199	0.086093135
206	0x3c4ea280	0.012611985
207	0xbdb23358	-0.08701199
208	0xbc3f6ebb	-0.011684115
209	0xbe0ff8c6	-0.14059743
210	0xbeb678f6	-0.3563916
211	0xbecb5477	-0.3971288
212	0x3e390a2c	0.18070287
213	0x3ebf0c53	0.3731409
214	0x3e2350e7	0.1594883
215	0x3bfeb3df	0.007772907
216	0x3f0ccc5e	0.5499934
217	0x3f000c85	0.50019103
218	0xbddd27f1	-0.10798634
219	0x3df504a8	0.11963779
220	0xbe172a35	-0.14762194
221	0xbe26c970	-0.1628778
222	0x3da9dfd6	0.082946464
223	0xbed3d25c	-0.4137143
224	0xbee29d2c	-0.44260538
225	0xbeb6a5b9	-0.3567331
226	0xbe79497b	-0.24344437
227	0xbd476703	-0.048682224
228	0x3e20a2d2	0.15687111
229	0x3e17cd79	0.14824475
230	0x3e9be1eb	0.304458
231	0x3e937066	0.2879669
232	0x3e661eb4	0.2247265
233	0x3ed96d20	0.42466068
234	0x3e4c6146	0.19958982
235	0x3e9cc215	0.30616823
236	0xbe93baaa	-0.2885335
237	0x3eaceb71	0.33773378
238	0x3e55afc4	0.2086783
239	0x3ea769d3	0.32697925
240	0xbe72d819	-0.23715247
241	0xbdf256b5	-0.11832944
242	0x3ea98906	0.33112353
243	0xbd9b3351	-0.07578147
244	0xbeae0d5b	-0.33994564
245	0xbec41e57	-0.38304397
246	0x3e2f601c	0.17126507
247	0x3d89cbd0	0.06728327
248	0x3c79d614	0.015248794
249	0x3ed93428	0.42422605
250	0x3e63a678	0.22231472
251	0x3eb7d172	0.35901982
252	0x3e04a77d	0.12954517
253	0x3d966131	0.073427565
254	0xbea13257	-0.3148372
255	0xbe99778a	-0.29974014

bias f4 [32]
0	0x3a97da2c	0.0011585406
1	0x3e472982	0.19449428
2	0xbb153aab	-0.0022770565
3	0xbe3213ff	-0.1739044
4	0x3e24f8df	0.16110562
5	0x3e1a769d	0.1508431
6	0x3e154fdc	0.14581245
7	0x3e8d22e0	0.2756567
8	0x3d3f0227	0.046632912
9	0x3e8592bf	0.2608852
10	0x3d5d5b79	0.054042313
11	0xbe1fd0e2	-0.15607026
12	0x3e49b404	0.19697577
13	0x3d01101e	0.03150951
14	0x3d2ff7ca	0.04296092
15	0x3df2f6b0	0.11863458
16	0x3eb43e2a	0.35203677
17	0xbe4bc9dd	-0.19901223
18	0x3e75b67f	0.23995398
19	0xbe6e3a6d	-0.23264475
20	0x3e8fd53f	0.2809238
21	0xbe20c198	-0.1569885
22	0xbdefc429	-0.117073365
23	0x3e8fd038	0.28088546
24	0x3d5d3a9d	0.054010976
25	0xbe2d6018	-0.16931188
26	0xbdf200f7	-0.1181659
27	0xbd0067d7	-0.03134903
28	0x3e84b590	0.2591977
29	0x3e62aee0	0.22137022
30	0xbd932992	-0.07185663
31	0x3dafd1fa	0.08584972

weight f4 [64, 32, 3, 3]
0	0x3cebbb56	0.028775852
1	0xbcc03779	-0.023463951
2	0x3bfe5d95	0.0077626207
3	0xbda24d08	-0.07924849
4	0x3adb8e50	0.0016750786
5	0xbdd92172	-0.10602082
6	0xbd1cb4d6	-0.038258396
7	0xbbfca2c1	-0.0077098315
8	0xbd155637	-0.036459174
9	0xbd6cee76	-0.0578446
10	0xbd4ab4ae	-0.049488716
11	0x3da1ebb0	0.07906282
12	0xbdc9eef7	-0.09860032
13	0xbe34107e	-0.17584416
14	0xbe141ce1	-0.14464141
15	0xbd719aab	-0.058985393
16	0xbe6d63be	-0.2318258
17	0xbe90e18a	-0.28297073
18	0xbe0c7728	-0.1371733
19	0xbe5bc39c	-0.21461338
20	0xbe6d5664	-0.23177487
21	0xbe2f5273	-0.17121296
22	0xbe484566	-0.19557723
23	0xbdc5763d	-0.09641693
24	0x3d4c97ea	0.049949564
25	0x3d385a6d	0.04500811
26	0x3e035ffe	0.12829587
27	0xbe10e72e	-0.14150688
28	0xbc97d899	-0.018535899
29	0xbd6b5932	-0.05745811
30	0xbe3b789c	-0.18307728
31	0xbe0758c5	-0.13217457
32	0xbd2141ef	-0.03936952
33	0xbd3c391b	-0.045952898
34	0x3c0ca9cd	0.008585406
35	0x3d864b3f	0.06557321
36	0xbc9a1f23	-0.018813675
37	0x3dd5e964	0.10444906
38	0x3c9e0313	0.019288575
39	0xbcf5a1e5	-0.029984424
40	0x3ba0141f	0.004885211
41	0x3d3c943c	0.046039805
42	0xbca9871e	-0.020694312
43	0x3d8033ed	0.06259904
44	0xbd30bf28	-0.04315105
45	0xbd0268d2	-0.031838246
46	0xbcf46acc	-0.029836081
47	0x3d8b06a4	0.06788376
48	0x3bc9a3dd	0.006153567
49	0xbd319491	-0.043354575
50	0xbd10a722	-0.03531564
51	0xbd4d9032	-0.050186343
52	0xbc716cfa	-0.014735455
53	0xbd83bea2	-0.06432845
54	0x3be07a38	0.006850507
55	0x3d7f06c4	0.06226231
56	0x3cb0aaab	0.021565756
57	0x3c433baa	0.0119160805
58	0x3cf244c3	0.029573804
59	0x3d2ba472	0.041904874
60	0x3d298296	0.041384302
61	0x3d4d9028	0.050186306
62	0x3bdf3768	0.006812025
63	0x3bbd2868	0.005772639
64	0xbd8a7a5d	-0.0676162
65	0xbdcbdd86	-0.099543616
66	0x3d88012b	0.06640848
67	0xbdd30583	-0.10303786
68	0xbd7530e1	-0.059861068
69	0x3d4babaa	0.04972426
70	0xbe36897a	-0.1782588
71	0xbdc369ee	-0.09541689
72	0xbd900810	-0.07032788
73	0xbd5c00ea	-0.05371181
74	0x3dcf2a55	0.10115496
75	0xbdd6eea6	-0.10494737
76	0xbddb90d4	-0.10720983
77	0xbd47adc9	-0.04874972
78	0xbd1c13a6	-0.038104676
79	0x3cd6ba0f	0.026211767
80	0xbd11b369	-0.03557149
81	0xbdfdf432	-0.12400092
82	0xbde0536a	-0.1095341
83	0x3d62999e	0.055322282
84	0xbdf4349c	-0.11924097
85	0xbe32eb69	-0.17472614
86	0xbe01b915	-0.1266826
87	0x3be85e1a	0.007091296
88	0xbe0f13e2	-0.13972428
89	0xbe2e9ac8	-0.17051232
90	0x3d308d45	0.043103475
91	0xbd360bf3	-0.04444499
92	0x3d2605f9	0.04053304
93	0xbb6ae318	-0.0035840925
94	0xbd753ba9	-0.05987135
95	0xbdaf149a	-0.08548851
96	0x3ce4f472	0.027948592
97	0xbd2a065c	-0.04150997
98	0xbe4ee712	-0.20205334
99	0x3d4d0c30	0.05006045
100	0x3db516df	0.08842253
101	0x3bc9e795	0.00616164
102	0xbbdcb56a	-0.0067354934
103	0x3de82a81	0.11336232
104	0xbcf4bf19	-0.029876279
105	0x3dc795b7	0.09745353
106	0x3d383adc	0.044978008
107	0xbd138e1d	-0.0360242
108	0x3da55c41	0.08074237
109	0xbd1f36b5	-0.038870532
110	0xbd99f7b4	-0.07517949
111	0x3c2df11e	0.010616569
112	0xbbd0902d	-0.0063648433
113	0xbd3cdffa	-0.04611204
114	0x3d470440	0.048588037
115	0xbd9ee467	-0.07758408
116	0xbde21ab7	-0.11040252
117	0x3dba23ea	0.09088881
118	0x3d8cbe27	0.06872206
119	0x3c8e1ae9	0.017346816
120	0xbc82406d	-0.015899861
121	0x3df2a94b	0.11848696
122	0xbd4ce989	-0.050027404
123	0x3db7c2ab	0.08972677
124	0x3e04b0f9	0.12958135
125	0xbcf4c5a7	-0.029879404
126	0xbe0407b3	-0.12893562
127	0xbb95d061	-0.00457196
128	0xbd79a73b	-0.0609505
129	0x3cc6f27e	0.024285551
130	0x3e03b42d	0.128617
131	0xbcdff017	-0.027336163
132	0x3e4add72	0.19811037
133	0x3e69e184	0.22839934
134	0x3ca2f4fe	0.019892212
135	0x3d2d8899	0.042366598
136	0x3d598ce3	0.053112876
137	0x3ce2b555	0.027674356
138	0xbceeb2bc	-0.029137962
139	0xbe1fe8eb	-0.15616195
140	0xbe279776	-0.16366372
141	0xbceb4fca	-0.02872457
142	0xbea0261f	-0.31279084
143	0xbe8e8f23	-0.2784358
144	0xbde23bbe	-0.11046551
145	0x3d5e7e2c	0.054319546
146	0x3d9610d4	0.073274285
147	0xbc8b4621	-0.017001214
148	0x3d78610c	0.060639426
149	0xbc2c1483	-0.010502937
150	0xbe5b8975	-0.21439154
151	0x3bb69f8d	0.005573219
152	0x3c8dfc3a	0.017332185
153	0x3d8b4f92	0.06802286
154	0xbccc3aeb	-0.024930438
155	0xbd953228	-0.07284957
156	0x3df080cf	0.11743318
157	0xbd7935d9	-0.06084237
158	0xbdc2d4b5	-0.09513227
159	0x3dcea4b6	0.1009001
160	0x3ccba64f	0.024859576
161	0xbcce34b7	-0.02517162
162	0x3e1aaeac	0.15105695
163	0xbd372f3b	-0.044722777
164	0xbe521802	-0.20516971
165	0x3e0a073a	0.13479319
166	0xbd2f32f4	-0.042773202
167	0xbe11aa53	-0.1422513
168	0x3dfbc86e	0.12294088
169	0xbe077442	-0.13227943
170	0xbe559150	-0.20856214
171	0x3d1db59e	0.03850328
172	0x3c1e1784	0.009649161
173	0xbd9b4f46	-0.075834796
174	0x3dbfd30d	0.093664266
175	0x3d1a5a79	0.037683938
176	0x3ba28a87	0.0049603614
177	0x3da2a9c1	0.07942534
178	0x3df3e814	0.119095
179	0x3bdbb8e0	0.0067053884
180	0xbe66ba86	-0.2253209
181	0xbded55d6	-0.115886375
182	0xbde36832	-0.11103858
183	0xbd8d4d2f	-0.06899487
184	0xbdbe3c96	-0.092888996
185	0x39e97132	0.0004452556
186	0xbe76727f	-0.24067114
187	0xbe099374	-0.13435155
188	0xbd100cab	-0.03516833
189	0x3d37802c	0.04479997
190	0x3dc6502c	0.0968326
191	0x3d8196fc	0.06327626
192	0x3d82478e	0.06361304
193	0x3df090f9	0.11746401
194	0x3c30d1fc	0.010792252
195	0x3c195494	0.009358544
196	0x3dce49b9	0.10072655
197	0x3c4a8208	0.012360103
198	0x3d9aabed	0.075523235
199	0x3da6101a	0.0810854
200	0x3c7256ef	0.014791234
201	0x3e057b2d	0.13035269
202	0x3dc8b4e2	0.09800126
203	0xbd332895	-0.043739874
204	0x3daab2a1	0.08334852
205	0xbd103e56	-0.0352157
206	0xbe1fc96c	-0.1560418
207	0xbd538f06	-0.05165007
208	0xbe3af0ec	-0.18255967
209	0xbd7465ad	-0.059667278
210	0xbdae7c1b	-0.08519765
211	0xbca6d9d6	-0.020367544
212	0x3da9d3ac	0.08292326
213	0xbd8d6ed7	-0.06905907
214	0xbc89da59	-0.01682775
215	0x3cae5dca	0.021284956
216	0x3d1af88e	0.037834696
217	0x3e60ee50	0.21965909
218	0x3e400a32	0.18753889
219	0xbe2ca413	-0.16859464
220	0x3d90213f	0.07037591
221	0x3dd1b07a	0.10238738
222	0xbe630d69	-0.22173084
223	0xbe271f5d	-0.16320558
224	0xbe362bf9	-0.17790212
225	0xbd6a7d20	-0.057248235
226	0xbe287ccf	-0.1645386
227	0xbe45d0c7	-0.19317923
228	0xbdb97af0	-0.090566516
229	0xbe395165	-0.18097456
230	0xbe1a162f	-0.15047525
231	0xbdc2c6ba	-0.0951056
232	0xbdf5a7e8	-0.11994916
233	0x3d0e9133	0.03480644
234	0xbc6b1d34	-0.014350224
235	0xbca399d0	-0.019970804
236	0xbb8c53db	-0.0042824573
237	0x3d1b6d60	0.037946105
238	0xbcff40a5	-0.031158755
239	0xbdb23edc	-0.08703396
240	0x3dbf6074	0.09344569
241	0x3dcbf54d	0.09958897
242	0xbd1fa04a	-0.038971223
243	0xbe9552a2	-0.29164606
244	0xbe57e360	-0.2108283
245	0xbe40ffe4	-0.18847615
246	0xbeb62b7b	-0.35580048
247	0xbe446a51	-0.19181181
248	0xbc8999ed	-0.01679703
249	0xbdaff9b0	-0.08592546
250	0x3e09c325	0.13453348
251	0x3e79e221	0.24402668
252	0x3c94c620	0.01816088
253	0xbe014daa	-0.12627283
254	0xbd334d29	-0.043774758
255	0x3b100b53	0.0021979406

bias f4 [64]
0	0x3d230551	0.039799992
1	0xbd236065	-0.03988685
2	0xbcea2c93	-0.028585708
3	0xbc2bedf8	-0.010493748
4	0xbd452598	-0.048131555
5	0xbd00e07b	-0.03146408
6	0x3cb04740	0.02151835
7	0x3cf6dba1	0.030134024
8	0x3c6b2fb6	0.014354637
9	0xbc47f062	-0.012203308
10	0x3c9af7c8	0.01891698
11	0xbd0202f7	-0.03174111
12	0xbb692058	-0.0035572257
13	0x3ce498f5	0.027904967
14	0xbcc78175	-0.024353722
15	0xbd7afefc	-0.06127833
16	0x3d5fea26	0.05466666
17	0xbc21d86b	-0.009878258
18	0x3ce697d8	0.028148577
19	0xbd0e10e1	-0.034684066
20	0xbd45482c	-0.04816453
21	0xbc2c55d9	-0.010518515
22	0xbcf7b129	-0.030235844
23	0xbd0b7255	-0.034044582
24	0xbd62c3ba	-0.05536244
25	0xbd16e853	-0.036842655
26	0xbb472d12	-0.0030391854
27	0xbd884c25	-0.066551484
28	0x3d91177b	0.07084557
29	0xbd1d7496	-0.038441263
30	0xbd117280	-0.035509586
31	0xbd16d66c	-0.036825582
32	0xbd348d6e	-0.04408019
33	0xbcb5e357	-0.02220313
34	0xbd2380d2	-0.039917774
35	0xbd7c54cf	-0.061604317
36	0xbc4c2932	-0.012460994
37	0x3b154151	0.0022774527
38	0xbc986989	-0.01860501
39	0xbcbd30b6	-0.023094516
40	0x3c576f2b	0.013149063
41	0x3b9e9e9d	0.0048406855
42	0x3d565b54	0.05233319
43	0xbd4fc1cc	-0.05072193
44	0x3d4c7109	0.049912486
45	0xbc5800eb	-0.013183813
46	0x3cdc0a2d	0.026860321
47	0xbd6c007b	-0.057617646
48	0x3d3816eb	0.04494373
49	0x3c89bb6f	0.016813008
50	0x3c977f5a	0.018493343
51	0xbc0722d0	-0.008248046
52	0x3bbb9984	0.0057250876
53	0xbba5d394	-0.0050606225
54	0x3d6fbbeb	0.058528822
55	0xbd1fffe5	-0.0390624
56	0xbbcd1677	-0.0062587815
57	0xbcbafbe0	-0.022825181
58	0x3cd4ee67	0.025992585
59	0xbd24a4c4	-0.040196195
60	0x3d1a0e26	0.03761115
61	0x3c8a1315	0.016854802
62	0x3d2c9b12	0.042140074
63	0xbd4bcd70	-0.049756467

weight f4 [10, 9216]
0	0xbca3c929	-0.019993382
1	0xbb8a1a8b	-0.00421459
2	0xbc35b266	-0.011089897
3	0xbd9f7c9d	-0.0778744
4	0xbe319aeb	-0.17344253
5	0xbe43670b	-0.19082277
6	0xbd8fd152	-0.070223466
7	0xbd9dacc5	-0.07698969
8	0xbd032207	-0.032014873
9	0xbc12047e	-0.008912204
10	0xbc8f4799	-0.017490195
11	0xbb496ccc	-0.0030735014
12	0xbca3002c	-0.019897543
13	0xbbdf151a	-0.0068079354
14	0xbd21bb25	-0.039485116
15	0xbe251549	-0.16121401
16	0xbc9b30ab	-0.018944105
17	0xbd91a25e	-0.07111047
18	0xbd3db8f9	-0.04631898
19	0xbd6f5d94	-0.058438852
20	0xbd0e9eba	-0.034819342
21	0x3cfd9c4d	0.03095832
22	0xbc00567d	-0.00783312
23	0xbccdb99d	-0.025112921
24	0xbcba8b57	-0.02277152
25	0xbceb4f86	-0.028724443
26	0xbcefaf1d	-0.029258305
27	0xbcdb29a3	-0.026753252
28	0x3b5ec1f7	0.0033990124
29	0xbda46dc2	-0.08028747
30	0xbe294ec3	-0.16533951
31	0xbe1c25de	-0.1524882
32	0x3d029da2	0.03188861
33	0x3cb86639	0.022509681
34	0xbd467abc	-0.048456892
35	0xbc97648e	-0.018480565
36	0xbd80fc1c	-0.06298086
37	0xbcd6995a	-0.02619617
38	0x3daef382	0.08542539
39	0xbcb5939b	-0.02216511
40	0xbd1a7a38	-0.037714213
41	0xbc012158	-0.007881485
42	0xbcfb0874	-0.03064368
43	0xbd93de96	-0.07220189
44	0x3d4f5601	0.05061913
45	0x3b8a239c	0.0042156707
46	0xbb43f51b	-0.0029900733
47	0x3dda7d9d	0.1066849
48	0x3ae33960	0.0017335825
49	0xbc9497ab	-0.018138727
50	0x3d5285ff	0.05139732
51	0xbd03f045	-0.03221156
52	0x3d11ed25	0.03562655
53	0x3dfe1a35	0.12407342
54	0x3c97486c	0.01846715
55	0x3be14e12	0.006875762
56	0x3c640f01	0.013919593
57	0xbc7a3391	-0.015271083
58	0x3c5b75c3	0.013394776
59	0x3cc63969	0.024197297
60	0x3d4571d5	0.04820426
61	0xbcba8b58	-0.022771522
62	0x3c5d048a	0.013489852
63	0x3c644ec2	0.013934793
64	0xbd183d0a	-0.037167586
65	0x3de5b24b	0.11215647
66	0xbc7d386b	-0.015455346
67	0xbc495cd4	-0.012290198
68	0x3d1709c0	0.036874533
69	0xbc93cfa5	-0.018043349
70	0x3ce5c27d	0.02804684
71	0x3b856522	0.004070894
72	0x3d8ec9f0	0.0697211
73	0x3d21bcb9	0.03948662
74	0x3d21b7a7	0.039481785
75	0x3b742419	0.0037252961
76	0xbbc9a002	-0.0061531076
77	0x3ca0e58f	0.019640712
78	0xbc165257	-0.009174905
79	0xbc18f630	-0.009336039
80	0x3d731046	0.05934169
81	0x3d1484bd	0.0362594
82	0x3d333b21	0.04375756
83	0x3d284e25	0.04109015
84	0x3d632ec3	0.055464517
85	0x3caa2b4f	0.020772604
86	0x3c22371a	0.009900833
87	0x3b6c67b4	0.0036072554
88	0x3cefc6e5	0.029269645
89	0x3d32bc26	0.043636464
90	0x3b47e7ce	0.0030503157
91	0xbb5fad0f	-0.003413025
92	0xbcc0e66f	-0.02354738
93	0xbc4972c1	-0.012295426
94	0x3a4b71d0	0.0007760795
95	0x3c11ef29	0.008907118
96	0x3b99782c	0.004683515
97	0x3daa8298	0.0832569
98	0x3de035eb	0.10947784
99	0x3d529329	0.051409874
100	0x3d906e4d	0.07052288
101	0x3d32a756	0.043616615
102	0xbdf2ac63	-0.118492864
103	0xbd7e8ca4	-0.062145844
104	0xbb66b2f2	-0.0035201875
105	0x3c56a60f	0.013101115
106	0x3d1727b0	0.036903083
107	0x3d02deb4	0.031950668
108	0xbc3a5a2c	-0.011374038
109	0x3ccd8b7d	0.025090927
110	0x3dcfde1c	0.10149786
111	0x3cba9c95	0.022779742
112	0x3cf98b9f	0.030462084
113	0xbcd65ebd	-0.026168222
114	0xbdaec969	-0.0853451
115	0xbd611047	-0.054947164
116	0x3c894cb0	0.0167602
117	0x3c485769	0.012227871
118	0xbd54b0ba	-0.051926352
119	0xbd87c126	-0.06628637
120	0xbc4e863e	-0.012605248
121	0xbbebaa37	-0.007191922
122	0x3c19dc91	0.009390966
123	0xbc47f5d6	-0.012204608
124	0xbd6821d9	-0.056672905
125	0xbdd94da2	-0.106105104
126	0xbdf884bc	-0.12134692
127	0xbbc8b4ec	-0.006125083
128	0x3d43d203	0.047807705
129	0x3da51652	0.08060898
130	0x3a997ec0	0.0011710748
131	0xbd0e9734	-0.034812167
132	0xbb89da7d	-0.004206954
133	0xbc964677	-0.018344147
134	0xbc7dccfc	-0.015490767
135	0xbd09672a	-0.03354565
136	0xbd67236f	-0.056430276
137	0xbd37ee0a	-0.044904746
138	0xbd3e266f	-0.046423372
139	0x3d17df8b	0.03707842
140	0x3ccadd2c	0.024763666
141	0xbc9f19c5	-0.019421468
142	0xbc80dd51	-0.015730532
143	0xbc7aeb93	-0.015314954
144	0xbbf6eeb1	-0.0075357785
145	0xba5dd5f7	-0.0008462364
146	0x3c088616	0.00833275
147	0xbbc15d59	-0.0059010205
148	0xbc5f489f	-0.013628154
149	0xbd24d841	-0.0402453
150	0xbdb58242	-0.08862735
151	0xbcfb6d04	-0.030691631
152	0xbc19beeb	-0.009383897
153	0xbc85ea05	-0.01634694
154	0x3bd5428b	0.0065081767
155	0x3b315125	0.0027056423
156	0xbb50748d	-0.003180775
157	0xbc06e53b	-0.008233364
158	0x3c54a363	0.012978408
159	0xbcb8877f	-0.022525547
160	0x3bc421e8	0.0059854873
161	0xbd795dfb	-0.060880642
162	0xbdd50c22	-0.10402705
163	0xbe141979	-0.14462842
164	0xbe11ec07	-0.14250194
165	0xbd29ee60	-0.041487098
166	0xbc233960	-0.00996241
167	0xbc2262eb	-0.009911279
168	0x3b8c3085	0.004278245
169	0x3ba832bc	0.005133001
170	0xbcc7aa62	-0.024373237
171	0xbac1b48f	-0.0014778542
172	0xbd2d9867	-0.04238167
173	0xbdb06479	-0.08612914
174	0x3b965918	0.0045882575
175	0xbd57ea99	-0.052713964
176	0xbd5c2844	-0.053749338
177	0xbccdcb9f	-0.025121508
178	0xbdd58f5e	-0.10427736
179	0xbd0de8d4	-0.03464587
180	0x3b80a7f6	0.0039262725
181	0xbb9352b0	-0.004495941
182	0xbe0ad8ca	-0.13559261
183	0x3dad20a9	0.08453495
184	0xbbe3dde4	-0.0069539417
185	0x3c03d93f	0.008047401
186	0x3c96fd3a	0.018431295
187	0xbd1f2254	-0.038851097
188	0xbd6a82ae	-0.057253532
189	0xbe098884	-0.13430983
190	0xbe00edb8	-0.12590683
191	0xbc460444	-0.012085978
192	0x3cd0e57f	0.025500057
193	0x3da6b8c8	0.08140713
194	0x3d5a7899	0.053337667
195	0x3de6e3fa	0.11273952
196	0x3d355cec	0.04427807
197	0xbc484c89	-0.012225279
198	0xbd4f5921	-0.05062211
199	0xbce630a6	-0.02809937
200	0xbce62a3e	-0.028096315
201	0xbde03422	-0.109474435
202	0x3b7618e1	0.003755145
203	0xbc7328db	-0.014841284
204	0x3c42d812	0.0118923355
205	0x3b26ae73	0.002543357
206	0xbc1301ee	-0.008972628
207	0x3cb05d19	0.021528767
208	0x3beb2369	0.007175852
209	0x3d1c113d	0.038102377
210	0x3cde00fa	0.027100075
211	0xba2fb755	-0.0006703039
212	0x3d16e0af	0.03683537
213	0x3db440b1	0.088014014
214	0xbc9ff782	-0.0195272
215	0xbbafac21	-0.0053610955
216	0xbd9db1bb	-0.07699915
217	0xbc452caa	-0.0120345745
218	0xbcbe20c8	-0.02320899
219	0x3d86f21c	0.065891474
220	0x3d2868cb	0.041115563
221	0x3ce7522d	0.028237427
222	0xbd7a90f2	-0.061173387
223	0xbd8f260c	-0.06989679
224	0x3c894fa5	0.01676161
225	0x3c40d4e4	0.011769507
226	0xbcb7ea6d	-0.02245065
227	0x3b948dc4	0.0045335013
228	0xbd3786af	-0.04480618
229	0xbdf8c5fa	-0.12147136
230	0xbded602a	-0.115906075
231	0xbd12ed03	-0.035870563
232	0xbd08ea2a	-0.03342644
233	0xbcd42834	-0.025898077
234	0xbe138f6c	-0.1441018
235	0xbdaad699	-0.083417125
236	0x3d4445b3	0.047918033
237	0x3d922139	0.07135243
238	0x3d06bc64	0.032894507
239	0x3d61fe31	0.055174056
240	0x3b2b78e4	0.0026164586
241	0xbd43d2e4	-0.047808543
242	0xbd514560	-0.05109155
243	0x3b3a5405	0.0028431427
244	0xbd3c32fb	-0.045947056
245	0xbd8ca61b	-0.068676196
246	0x3c4ef65f	0.012631982
247	0x3db6e921	0.089311846
248	0x3dafba2f	0.085804336
249	0x3d739c34	0.05947514
250	0xbbb30ca6	-0.0054641543
251	0x3cc81272	0.024422858
252	0xbc672c61	-0.014109702
253	0x3be6e4e7	0.0070463303
254	0x3c236613	0.009973067
255	0xbba429a0	-0.005009845

bias f4 [10]
0	0xbc2daaea	-0.010599831
1	0x3d284725	0.041083474
2	0x3bbf8813	0.0058450787
3	0xbc926661	-0.017871084
4	0xbc29fa64	-0.010374639
5	0xbb934c32	-0.004495167
6	0x3c03a960	0.008035988
7	0x3ccd903a	0.025093187
8	0xbcd09542	-0.025461797
9	0xbbdde54f	-0.0067717205
