MLOps_DTU_project/models/dummu_test_chkpt.pth (torch, 447038 bytes, 6 tensors)

cnn1.weight f4 [32, 1, 3, 3]
000000 b4 04 c5 be 66 2e fc bd 24 e0 44 be bf 3a 97 be
       -0.3848015 -0.12313537 -0.19226128 -0.29537007
000010 79 e9 f8 3c 52 27 46 3e b5 fd 8c 3e 59 e6 1c 3e
       0.030384766 0.19350937 0.27537313 0.15322246
000020 ed b7 82 bd ba 28 ad be 7f dc 8f 3e 85 85 49 3e
       -0.06382737 -0.33820134 0.28097913 0.1967984
000030 d5 ec c7 be 1f fc 5e be fa 65 ae 3e b1 f6 2f 3d
       -0.39047876 -0.21775864 0.34062177 0.042959873
000040 e1 b7 73 be de 69 19 3e b3 c8 dc bd 7d 15 42 3e
       -0.23800613 0.14981791 -0.10780468 0.1895351
000050 4e 94 a2 be 76 26 18 bd cc 0d 86 3e 2d ea 72 be
       -0.31753772 -0.037146054 0.261824 -0.23722143
000060 5e d8 24 3e 4a 6f 9c 3e b6 34 95 be 2a c8 34 3e
       0.16098163 0.30553657 -0.29141778 0.17654482
000070 ac 9c 2d 3e 58 b4 1c be 82 74 fd bd 49 e9 43 3e
       0.16954297 -0.1530317 -0.12375738 0.1913196
000080 2c a6 a0 be f3 d0 7c 3d 3c 33 02 be 13 30 c6 3d
       -0.3137678 0.061722707 -0.12714857 0.09677138
000090 52 ba ae 3e f1 69 4f 3e cf 94 93 3e 4a d8 30 be
       0.34126526 0.20255257 0.2882447 -0.17270008
0000a0 6c cb 75 be f7 3e 97 be 2b 41 3f bc 78 05 9e be
       -0.2400338 -0.29540226 -0.011673252 -0.30863547
0000b0 59 2d 25 3e 5c 2b aa be 28 4f d2 3c 7d 8a 25 3c
       0.1613058 -0.33236206 0.02567251 0.010103819
0000c0 be 83 44 3d 02 b3 e8 3d 2a ac ef bd a8 87 8b be
       0.0479772 0.11362268 -0.117027596 -0.27251935
0000d0 ca 47 86 be 11 da e0 3e 4e 17 8f 3d ee 07 24 bc
       -0.26226646 0.4391637 0.06986867 -0.010011656
0000e0 6b 3a 97 3e 30 64 57 be dd 98 0e be fc e1 87 be
       0.29536757 -0.21034312 -0.139255 -0.265396
0000f0 27 7e a4 3c 37 ac 86 3e e3 61 43 3e f6 07 e2 bd
       0.020079685 0.26303264 0.1908031 -0.11036675
000100 c5 a9 5c be aa fa 70 3e 01 cb 59 be de c8 15 3e
       -0.21549137 0.23533121 -0.21268846 0.14627406
000110 77 9e 62 be 29 f2 ec bd a1 1c ab be 9d 3c ba 3c
       -0.22130762 -0.11569626 -0.3342028 0.02273398
000120 33 20 8b 3e d3 cd cb 3c da bb ac be 98 05 1a 3e
       0.27173004 0.024878418 -0.3373707 0.15041196
000130 28 20 95 3e a5 d4 cb 3d 86 ec 34 3e 4f 29 73 be
       0.29126096 0.09952668 0.17668352 -0.23746227
000140 bc df 4b 3d c0 3c 84 3d e5 31 82 be 8c cd 89 be
       0.049773917 0.064569 -0.25428692 -0.26914632
000150 94 0c 74 be 47 14 7b 3c 80 30 64 bb d7 51 e8 3d
       -0.23832923 0.015324659 -0.0034818947 0.11343735
000160 23 cb 43 bd 3d 1e 3f 3e 7b 0e 8c 3e 38 53 b5 be
       -0.04780115 0.18663879 0.27354798 -0.35415053
000170 31 9f 83 3d a3 89 1e be e4 80 30 be 6e 83 94 3e
       0.06426848 -0.15482192 -0.17236668 0.29006523
000180 c6 80 9b be 7b 17 3a bd 83 f6 11 3e a0 33 29 3e
       -0.30371684 -0.04543255 0.14254193 0.165236
000190 2b 64 ff 3d 58 68 55 3e c3 fa 08 3d 7b b2 c6 bd
       0.124702774 0.20840585 0.03344227 -0.09702011
0001a0 60 b8 72 bd 29 d1 cd bd 08 88 d3 bd 88 77 a6 be
       -0.059257865 -0.1004966 -0.1032868 -0.3251307
0001b0 d9 e4 ca bc 0e 10 85 3d 60 e3 92 be a2 1b 2c 3e
       -0.024767326 0.06497203 -0.28689098 0.16807416
0001c0 a6 d8 73 be dd 8e 5e 3e cb cb 5f 3e 14 92 a6 3e
       -0.23813114 0.21734186 0.21855085 0.32533324
0001d0 2e 47 e8 3d 94 b5 64 be 92 44 98 be 1b dc 4a 3e
       0.113417014 -0.22334892 -0.29739815 0.19810526
0001e0 e8 df 93 bd be 3a a8 3d 9a b8 9b 3e 5b 8e 8e 3e
       -0.07220441 0.08214329 0.30414277 0.27842984
0001f0 51 e8 c8 bd 55 d3 38 be 7b f1 9e 3d cc 5b 7c be
       -0.09809936 -0.18049367 0.077609025 -0.24644393
000200 60 af 0a be 78 eb f9 bd 4d 9c 37 be cd 8b 0d be
       -0.13543463 -0.12203115 -0.17930718 -0.13822861
000210 85 60 b3 3d 85 81 e0 3e 9f 78 97 3d 57 ae 88 3e
       0.08758644 0.43848816 0.073960535 0.2669551
000220 f8 07 ce 3d d9 e2 4d 3d 10 99 bd be 7c 67 54 be
       0.10060114 0.050265167 -0.3703084 -0.20742601
000230 b8 a3 bf be 60 44 8a 3c b7 a1 20 be ef 47 86 3e
       -0.37429595 0.016878307 -0.1568669 0.26226756
000240 ae d6 6f be 68 4c 77 be 53 a8 28 3e 3f a1 a6 be
       -0.23421738 -0.2415024 0.1647046 -0.32544896
000250 11 82 96 3e df fd 82 be a3 4a ac 3e 85 6f 86 3d
       0.29396108 -0.25584313 0.33650693 0.065642394
000260 15 d3 19 3e b9 46 0b 3d e0 13 ab 3d b1 13 ad be
       0.15021928 0.034002993 0.083534 -0.33804086
000270 4c c6 96 3e f3 a5 6b 3c a2 b3 f8 bd ed 07 8b be
       0.29448164 0.014382827 -0.12143637 -0.27154484
000280 71 00 65 3c a8 e7 b1 be d6 9c 58 3e 89 d7 ad 3d
       0.013977156 -0.34747052 0.21153578 0.08488376
000290 c3 ed a9 be 5b d5 84 3e 8a c6 36 be 84 3f d1 bd
       -0.3318921 0.25944027 -0.17849174 -0.10217193
0002a0 0d ce c7 3e 37 48 75 be 10 13 24 be 72 b6 99 3e
       0.39024392 -0.23953329 -0.16022897 0.30022007
0002b0 39 f5 31 bc 3d af 90 3d f3 2a 81 3d 66 50 1e be
       -0.010861688 0.07064674 0.0630702 -0.15460357
0002c0 c6 90 2f be f7 dd 71 be fa e6 d5 3d 38 25 ab bd
       -0.1714507 -0.23619829 0.10444446 -0.08356708
0002d0 7a 39 7f bd 04 72 64 be c5 2d 9f be 80 7d 85 be
       -0.062310673 -0.22309119 -0.31089607 -0.2607231
0002e0 d0 c0 74 3e 38 99 8b 3e 25 ad d1 3d d9 99 62 be
       0.23901677 0.27265334 0.10238103 -0.22129
0002f0 d1 e9 b5 3e bc 80 83 3e 55 14 f3 bd 06 e8 0a be
       0.3552995 0.25684154 -0.118691124 -0.13565072
000300 e0 3f 96 be 39 c2 44 be ab d4 c5 3d fd 17 73 be
       -0.29345608 -0.19214715 0.09659704 -0.2373962
000310 5f e3 3c 3d f2 db b9 ba 27 f0 56 3e 46 e0 4c bd
       0.046115275 -0.0014179929 0.20990048 -0.05001857
000320 5a 92 4c be e0 fc 12 be 81 fa 91 3e 0a 41 b1 be
       -0.19977704 -0.14354277 0.28511432 -0.34619933
000330 3e e9 99 3e 32 34 9a be a2 12 c0 3d 09 2e d7 3d
       0.30060762 -0.30117947 0.09378554 0.105068274
000340 68 81 18 be 02 c2 bc be 02 c6 ac bd 34 7d 87 3c
       -0.14893115 -0.36866766 -0.084362045 0.016539194
000350 4b b5 89 3e 7b bc 5c 3e 88 ac 59 3e 0f ac 0a be
       0.26896128 0.21556275 0.21257222 -0.13542198
000360 57 a8 8b bd a6 eb 9d 3e 7b d9 9c be 52 85 be 3d
       -0.06819218 0.30843848 -0.30634674 0.093027726
000370 f5 f2 d4 bc 45 86 92 bd 33 8a cc bd 22 32 3b be
       -0.025994757 -0.07154516 -0.09987297 -0.18280843
000380 cc 4d 98 be 85 5f 36 3e 6d e8 07 3e 69 92 27 bc
       -0.29746854 0.17809875 0.13272257 -0.010227778
000390 0d 3c 88 3e ff fa 99 3e 0c ac af 3c 2e 27 29 be
       0.26608315 0.30074307 0.021444343 -0.16518852
0003a0 dc 52 a8 3e 9a 7a c9 bd f5 8a ba bd 39 9e 08 be
       0.32875717 -0.098378375 -0.09108535 -0.13341607
0003b0 dd fb d1 bd 77 e1 e3 bd 08 ab 53 3e a9 4d 2f 3e
       -0.10253117 -0.111269884 0.20670712 0.17119469
0003c0 83 5b a6 3e 92 47 25 be 80 1a 50 3e fa 88 4a be
       0.32491693 -0.16140583 0.20322609 -0.19778815
0003d0 a2 bf 6c be 0f 8d 01 3d 27 07 7d be 81 40 48 be
       -0.23119977 0.031628665 -0.2470976 -0.19555856
0003e0 62 33 52 be 51 2d a6 3e 8a 18 8e bd 44 cf b3 3e
       -0.20527413 0.3245645 -0.06938274 0.3511907
0003f0 59 56 c4 bd 23 8d 98 3e ad f2 a0 3e d5 2f 32 3e
       -0.09586782 0.2979518 0.31435147 0.17401059

cnn1.bias f4 [32]
000000 2c 5d 05 be bf f6 c1 bd 59 e7 d9 3d fc ee d5 bd
       -0.13023823 -0.09470891 0.10639829 -0.10445973
000010 0e 87 ab 3d d4 a2 44 be f0 ea 98 bd e0 d3 c2 bb
       0.08375369 -0.19202739 -0.07466686 -0.0059456676
000020 da f4 ea 3d 2a 24 58 3e 58 5d 5c be a0 82 51 bc
       0.11472483 0.21107545 -0.21519983 -0.012787491
000030 0b 64 48 be 9e 67 2f 3e b1 9b 48 bd ac 59 75 be
       -0.19569413 0.1712937 -0.048976604 -0.23959988
000040 dd 17 73 3e 6a b6 28 be bc 77 7c bc 79 97 66 3e
       0.23739572 -0.16475835 -0.015409406 0.2251872
000050 38 26 a0 3d 39 f7 8b bc 35 28 d4 bb 91 66 2e 3e
       0.0781979 -0.017085658 -0.0064745196 0.17031313
000060 cf 7f 0f be 4d 0b 72 3e 4e 63 04 bd 3a 76 8e 3e
       -0.14013599 0.23637123 -0.032321267 0.27824575
000070 7e e5 a5 3d 9e e7 60 be f6 a5 7e 3e aa 5f 9d be
       0.08100413 -0.21963355 0.24867997 -0.30737048

cnn2.weight f4 [64, 32, 3, 3]
000000 3e 8a 1b 3c 5a 2b a4 3b b5 34 cb bd 45 c6 2f 3c
       0.009493409 0.0050100507 -0.099221624 0.0107284235
000010 48 d1 0c 3d 39 49 cf bd 2c b9 13 3d 53 1a 45 bd
       0.034379274 -0.10121388 0.036065266 -0.048120808
000020 5c 82 35 bd 50 51 73 3d 19 ff ad 3d 5c 1e cc 3d
       -0.044313774 0.059403718 0.08495922 0.09966728
000030 f5 ca 90 3d 6e 69 cc 3d 35 e5 7f 3d f5 e5 8c 3d
       0.07069961 0.099810466 0.06247445 0.06879798
000040 e0 54 b3 3d ab a1 74 3d 82 73 bf bb ae e2 f8 bc
       0.08756423 0.05972449 -0.005842627 -0.030381527
000050 26 b6 64 3d 10 ab a5 bd 49 cc 9c 3b a8 ce c7 3d
       0.055837773 -0.08089268 0.004785095 0.097562134
000060 af 21 c7 bd 98 5e c2 3d 30 97 8c 3d c2 eb 58 3c
       -0.097232215 0.094906986 0.06864774 0.013239803
000070 ab 56 a9 3d 07 69 03 3e eb 72 d0 bd a5 32 a3 3a
       0.08268484 0.12833034 -0.10178169 0.0012451006
000080 2f 68 bb 3d 54 4c 3e bc 61 1d 6c bc de 45 a1 3d
       0.09150731 -0.011614878 -0.014411301 0.07874654
000090 e3 ad 1c 3d 2b 66 77 bd 79 3d 92 bd ee c1 82 bd
       0.03825177 -0.06040017 -0.07140631 -0.063846454
0000a0 4f 0c c2 bc b7 ac c9 bd 3a 6a 8b bd a2 59 91 bd
       -0.02368751 -0.09847396 -0.068073705 -0.07097174
0000b0 25 4a 8b bd f2 82 f6 3c 0b ca 8f 3d c8 da 85 3d
       -0.06801251 0.030091736 0.070209585 0.0653587
0000c0 67 56 f8 3d 2e ed 1e 3e 7c 2d 9f 3d c5 7b 56 3d
       0.12125855 0.15520164 0.07772347 0.05236413
0000d0 8c 34 cb 3d 10 6b 28 3e ff 69 9f 3c 86 38 3e bc
       0.09922132 0.16447091 0.019459723 -0.011610156
0000e0 d8 59 bf 3a 31 54 89 3d 23 94 1e 3c db 1b a6 3b
       0.0014598919 0.06705511 0.009678873 0.0050692386
0000f0 a8 fd 85 3c 69 7c 19 3d 63 a4 a7 3b 67 15 c4 3c
       0.016356304 0.037472162 0.005116032 0.023935987
000100 ac f1 7f 3c 82 f8 0f bd 30 59 0f bd bb 63 a1 3c
       0.015621584 -0.035149105 -0.034997165 0.019700876
000110 38 02 d0 bb d1 ba b9 3c 5f 71 f2 bc 90 38 d7 bd
       -0.0063479207 0.022672089 -0.029595075 -0.10508835
000120 7c 63 a1 bd f7 6f 8b bc 8a 34 34 bd f3 92 f5 bc
       -0.07880303 -0.017021162 -0.043995418 -0.029977297
000130 61 2d 00 3d 33 34 65 bb 87 37 ba 3c 39 91 cd bc
       0.031293277 -0.003497374 0.022731556 -0.025093662
000140 d7 8f 19 3d e5 1d 55 bd 04 19 e8 bd 26 3a c5 bd
       0.037490692 -0.052030463 -0.11332896 -0.096302316
000150 a2 ce 20 3c ec 1b d7 bd 17 1f 4a bd 3f 46 3a bd
       0.00981489 -0.105033726 -0.049346056 -0.04547715
000160 bf 8f 31 bd a5 33 ec bd 48 9d 2a 3d ac 07 9e 3c
       -0.043349978 -0.11533288 0.0416539 0.019290768
000170 96 ac 83 bc d8 89 84 3d f2 ca 10 bd b7 57 7b 3d
       -0.016073506 0.06471604 -0.035349794 0.06136295
000180 66 2a c2 3c f5 4c b9 3d cc 3b e6 3d d5 4b da bd
       0.023701858 0.090478815 0.11241874 -0.10658995
000190 49 ad c3 bd 27 d0 d4 bd 64 68 cb bd ab a5 3c bd
       -0.09554536 -0.103912644 -0.0993202 -0.04605643
0001a0 16 43 2c be 14 77 84 bd aa a6 b1 bd dd 8d f3 bd
       -0.16822466 -0.06468025 -0.08674367 -0.11892293
0001b0 ed 78 88 bd 3d bc d7 3c 50 f4 4c bc 89 70 88 3c
       -0.0666369 0.026334876 -0.0125094205 0.016655223
0001c0 8e 67 95 bd 97 3e 23 3b 0c 8a 0a bd 68 70 eb bb
       -0.07295142 0.0024909133 -0.033823058 -0.0071850307
0001d0 10 27 0c bd f0 13 f3 3c c5 78 24 3d 3c e8 2d 3d
       -0.03421694 0.029672593 0.040154237 0.042457804
0001e0 ce 46 e4 bb 2e 0d 3e 3d 32 9d 2e bd 43 dc 1d 3d
       -0.0069664484 0.046399288 -0.042630382 0.038540136
0001f0 87 b1 7b 3d 49 26 3b 3d ef 97 4f bd f2 6e d3 bd
       0.0614486 0.04569081 -0.050682005 -0.103238955
000200 b2 97 97 bd 8c f4 ad 3c 50 66 e1 bd 19 2d bd bd
       -0.074019805 0.021234773 -0.11005843 -0.09237117
000210 9d d2 71 3c 6e d5 8f bc 47 1c 7c bd 88 05 b4 3c
       0.014759687 -0.017557826 -0.061550405 0.021975294
000220 1e 84 99 bc d4 18 b6 bd 18 e7 9f bd cd 05 b2 bd
       -0.018739756 -0.08891454 -0.078077495 -0.08692513
000230 37 2d 6c bd e8 e3 92 bd 26 b1 10 be 0e 2f 2e be
       -0.057660308 -0.07172376 -0.14130077 -0.17010137
000240 05 87 d5 bb c4 87 81 bd d6 27 f7 bb 8a d9 1b bc
       -0.0065163397 -0.06324723 -0.0075425906 -0.009512315
000250 bc fa f2 3c 6a d7 56 bd 9b c2 9f 3d 49 37 7f 3b
       0.029660575 -0.05245153 0.0780079 0.0038942865
000260 da f7 05 3c 82 72 52 bd b4 d5 16 3d 16 bf df 3d
       0.008176768 -0.051378734 0.036824897 0.109251186
000270 ff 9d bb 3c 65 7b 8c bc 2d 76 e0 bb 41 f0 54 bc
       0.022902487 -0.017148683 -0.006850025 -0.012996734
000280 1a 89 34 3d 4a a4 01 3d 0f f6 c6 bd f4 b1 f0 bb
       0.044076063 0.03165082 -0.09714901 -0.0073454324
000290 da d5 d7 3d e1 6c a0 bd bb fd 8e bd 8f 24 ee 3d
       0.10538836 -0.07833267 -0.06981989 0.11628067
0002a0 51 c9 e3 bd e7 58 47 bd 0c bd b4 3d af 82 57 bd
       -0.111223824 -0.04866877 0.0882512 -0.052614864
0002b0 19 9a 59 3d aa f1 89 3d b9 2a b9 bd 72 5f 45 bd
       0.053125475 0.06735547 -0.09041352 -0.048186727
0002c0 ef bd 19 bd a1 e8 ce bc d8 08 ea bc 1c 35 68 bd
       -0.03753465 -0.02525741 -0.02856867 -0.056691274
0002d0 dc 68 5e bb c9 76 21 bd 6d 12 64 bd 89 45 85 3d
       -0.0033937013 -0.039419923 -0.055681635 0.065074034
0002e0 a9 8e 08 bd 31 ac 99 bd 5b 82 3c 3d 42 0d 8f bc
       -0.033339176 -0.07503546 0.046022754 -0.017462377
0002f0 75 ff 6b 3d 87 51 86 3c b9 3a 30 bd 11 29 cc bd
       0.05761667 0.016396297 -0.043024752 -0.0996877
000300 a7 23 0c bc 40 13 ac bb 1c 11 87 bd 6b 72 27 3d
       -0.008553422 -0.005251318 -0.0659506 0.0408806
000310 fd de 2f bd 99 63 41 bd 2f 8b 7f bc f3 2d 34 3b
       -0.042937268 -0.047214124 -0.015597149 0.0027493208
000320 cf 59 1b 3c 21 ed 92 bd 83 c3 86 bd ff da bb 3c
       0.009481861 -0.07174135 -0.0658026 0.022931574
000330 fe 6b 2d bd b7 86 7a bd 88 7b 37 3d 0d 0d 84 bd
       -0.042339318 -0.06116363 0.044795543 -0.06447802
000340 fa b3 a6 bd ec ff fc 3b dd a6 3a bd 40 0e 6d bd
       -0.081397966 0.007720938 -0.04556929 -0.057874918
000350 7e 55 c2 3b 6c 56 55 bc 9a b0 aa bc 8d 76 2d bc
       0.0059306016 -0.013021093 -0.020836163 -0.010587347
000360 18 f6 4d 3d 05 63 3e bc be 0b 1e 3d 6b 5d 05 3d
       0.05028352 -0.011620288 0.038585417 0.032559793
000370 9b 6f 97 bc 71 2e b4 b8 3e 9b 08 3d 4d 5b 19 bd
       -0.018485835 -8.591719e-05 0.033351175 -0.037440587
000380 5a 90 2c bd 5c b3 a1 bd 2c 36 7a 3d 50 54 d6 3c
       -0.042129852 -0.07895538 0.06108682 0.02616325
000390 71 84 0b bd 12 29 73 bd a7 89 83 3d 5a cd 12 3d
       -0.034061853 -0.05936534 0.064227395 0.03584037
0003a0 52 9f 5a bb 1d a9 87 bc a5 76 91 bc 53 ca ab 3c
       -0.0033359122 -0.016560132 -0.01775677 0.0209705
0003b0 d8 87 44 bd 5a 13 90 bc c7 55 51 bd 92 04 9c bd
       -0.047981113 -0.017587353 -0.051107194 -0.07618059
0003c0 08 b5 28 3d d7 33 5a 3d 3f 3f 23 bd c8 6d ee bc
       0.04118827 0.053272095 -0.039855238 -0.029105082
0003d0 fc 1c a2 3c 10 82 0d be 9c af 1b 3d d9 88 4a bd
       0.019789211 -0.13819146 0.03800927 -0.049446914
0003e0 ad 84 31 bd 2d 46 4f 3d bb c4 63 bd 3d ec ab bd
       -0.04333942 0.050604034 -0.05560754 -0.08394668
0003f0 de 0e 15 3d f9 a0 a5 bc 8e d2 f1 3c db c1 8d bc
       0.03639113 -0.02021836 0.029519346 -0.017304352

cnn2.bias f4 [64]
000000 5b 84 f6 3c b1 cf 86 bd 27 8b 09 bd 9a bb 65 3a
       0.030092409 -0.06582583 -0.03357997 0.00087636115
000010 5c cf 91 bc 51 24 44 3d 89 21 15 3d 6a 04 3e bd
       -0.017799072 0.047886197 0.036408935 -0.04639093
000020 14 46 dd bc 12 72 36 bd 34 9b f2 3c 10 14 82 3c
       -0.027010955 -0.04454238 0.029615022 0.015878707
000030 70 12 32 3c 56 7a 8a bc ec 9a 56 bd 71 54 34 bd
       0.010868654 -0.016904037 -0.05239384 -0.044025842
000040 c6 c6 18 3d fd b7 1e 3d 11 d9 9d bc c5 cd 59 bd
       0.03729894 0.038749684 -0.019268544 -0.053174753
000050 ee e7 2b 3d 59 d3 d8 bc 28 8e da 3b ce 13 f8 3c
       0.041969232 -0.026467966 0.0066697784 0.030282881
000060 3a 08 35 3d 2a 31 fb 3a f0 1e 23 3d 73 b3 3b bc
       0.0441973 0.0019164432 0.039824426 -0.011456358
000070 01 af 3f 3d 2a 74 65 bd 9b 4d 55 bd 9f 1b 4a bd
       0.046797756 -0.056018986 -0.052075963 -0.049342748
000080 a3 2f 89 3d 62 30 81 bc d5 91 1d bb fc 2d 43 bd
       0.06698539 -0.015770141 -0.0024043221 -0.047651276
000090 ce fc 04 3c 84 90 64 bd b5 1d 61 bd 36 88 8d bc
       0.008116914 -0.055801883 -0.05495997 -0.017276864
0000a0 a0 cf ad bc fe 76 47 3d 1b e2 d7 bb fb f1 8f bd
       -0.021217167 0.048697464 -0.006588233 -0.07028576
0000b0 ff 40 6c 3c da 06 a7 bc 21 89 1e 3d c8 df 2f 3d
       0.014419793 -0.02038901 0.038704995 0.042938024
0000c0 e7 13 cf 3c b7 43 4a bd 8b c2 89 3c 65 94 7d bd
       0.025278045 -0.049380984 0.016816398 -0.0619091
0000d0 fa 02 72 bd a0 12 50 3d b3 ce f4 3b 66 5f 8c bd
       -0.05908487 0.050799012 0.0074709295 -0.06854133
0000e0 68 01 a8 bc e3 13 33 3d e4 ed 7e bc a7 e7 d0 3b
       -0.020508483 0.043720137 -0.015559647 0.0063752714
0000f0 81 20 3c bd f8 59 61 bd ea 22 bf 3b 30 f4 f1 bc
       -0.045929436 -0.05501744 0.0058330195 -0.029535383

fc.weight f4 [10, 9216]
000000 58 f8 5c 37 5d 87 00 3c 30 bc 70 bd d0 1b ac bd
       1.3170844e-05 0.007844773 -0.05877322 -0.08403742
000010 62 7d bb bc d0 59 24 bc f5 b2 50 bc d3 42 19 bc
       -0.022886936 -0.010031179 -0.012737979 -0.009354311
000020 e9 cb dd 3b 6e 24 1b bc fa 2d 67 bc 27 96 72 bb
       0.0067686928 -0.009469135 -0.014110083 -0.0037015767
000030 2a 0e 18 3c a9 8d 4c bd f6 1b 7f bd 2d dc 9e bc
       0.009280721 -0.049939785 -0.062282525 -0.019392097
000040 f2 ab 04 3b b7 30 03 bc dd 68 f8 bc ce 59 6d bc
       0.002024409 -0.00800722 -0.03032344 -0.014486743
000050 ae f2 80 3c 52 a5 40 3c b7 b2 31 b9 a3 05 0b bc
       0.015740719 0.011758165 -0.00016946612 -0.008485231
000060 bf 8d c8 bc 33 31 23 bd 52 ed 6e bc 9f 3e a5 bb
       -0.024481652 -0.039841842 -0.014582949 -0.0050428654
000070 66 a5 49 bb 6f 54 a1 bc 33 c9 01 bd bc 33 b9 bc
       -0.0030768751 -0.019693581 -0.03168602 -0.022607677
000080 1e 86 9a 3c 40 3e 10 3b 71 63 28 bc fe c1 2c bb
       0.01886278 0.002200976 -0.010277615 -0.0026360746
000090 d8 f4 0f bd b2 99 18 bd c9 55 c6 bb 04 e6 db 3b
       -0.03514561 -0.03725595 -0.006052707 0.0067107696
0000a0 ec 36 98 bc cc 17 d5 bc 0f ba 15 bd 58 80 ad bc
       -0.018580876 -0.026012324 -0.036554392 -0.021179363
0000b0 f6 77 b0 3c 9b c5 93 ba 09 92 3d 3c b5 63 3e bb
       0.021541577 -0.0011274101 0.011570462 -0.002905113
0000c0 d7 a3 18 bd 0d 94 98 bc 47 06 8a bc 1b 7c b3 3a
       -0.037265625 -0.018625284 -0.016848696 0.0013693603
0000d0 00 0b 62 3a f0 45 f0 bc f0 3e 13 bd 16 a8 fc 3a
       0.0008622855 -0.029330224 -0.035948694 0.0019276168
0000e0 67 11 6c 3c be 4b b7 3c c0 29 23 3c ae 63 44 3c
       0.014408446 0.022374984 0.009958684 0.011986656
0000f0 cc bd 73 bb 6e df 84 ba ae 0a ce 3a 30 b1 30 3c
       -0.0037191985 -0.0010137388 0.0015719736 0.010784432
000100 e8 59 e8 3b 98 1a 1b bd bd 40 43 bd 7e 60 65 3a
       0.007090796 -0.03786716 -0.04766916 0.0008750035
000110 0b 1d 35 3c 74 83 86 3c a5 fc 8d 3c 68 a2 24 3c
       0.011054288 0.016420104 0.017332384 0.010048486
000120 8c 89 55 3c 9e 7e 3b bc f2 38 a7 3c 92 0e 58 3c
       0.013033282 -0.011443762 0.020412896 0.013187068
000130 30 00 3b 3c b0 c9 13 bd cd c3 41 bd a8 e6 68 bb
       0.011413619 -0.036081016 -0.04730587 -0.0035537872
000140 99 d1 8e 3c e3 18 11 3d d5 88 b1 3c 7c e4 60 3c
       0.017433928 0.035424124 0.021671692 0.01372635
000150 db e2 e0 3c 6a f0 af 3c f0 a8 a7 3c 23 6a 4c 3c
       0.027451923 0.021476943 0.020466298 0.012476477
000160 87 74 93 3c 55 33 f1 bc 58 ce 46 bd 44 2c d8 bc
       0.0179999 -0.029443422 -0.04853663 -0.026388295
000170 aa 09 83 3c b1 61 01 3d 43 1b f5 3c 0c 6c 85 bc
       0.01599582 0.031587306 0.029920226 -0.016286872
000180 a5 6a f5 3c 5c 42 3e 3d cb 8a b2 3c ef df 17 3d
       0.029958079 0.046450004 0.021794697 0.037078794
000190 97 0e df 3c 5d 68 ed bb ad 26 c0 bc ea 8c 1b bc
       0.027228637 -0.007245107 -0.023455942 -0.009494046
0001a0 84 e2 99 3c f4 e2 ce 3c 52 4f 64 3b ec 70 dd bc
       0.018784769 0.025254704 0.0034837318 -0.027031384
0001b0 4a a6 05 3d a6 10 33 3d 1b c9 98 3c cc d6 05 3c
       0.03262929 0.04371705 0.018650582 0.008168887
0001c0 66 9b bd 3c b4 6b 31 bc ae 33 ba bc ee 0a a0 3a
       0.023145389 -0.010828901 -0.02272972 0.0012210289
0001d0 bb 1d d7 3c 43 5b 8f bc ee e8 c3 bc e2 0c 42 bc
       0.026259294 -0.017499572 -0.02391478 -0.011843892
0001e0 72 a2 c3 3b af 28 13 3d 1a 27 cf 3c d9 24 87 3c
       0.0059702927 0.03592747 0.0252872 0.016497063
0001f0 a4 de 93 3b f1 17 16 bc aa 61 61 bc 35 40 bb bc
       0.004512625 -0.0091609815 -0.013756195 -0.022857765
000200 92 0f d6 bc 38 c1 db bc 08 3b 0b bd 67 90 1b ba
       -0.026130471 -0.026825532 -0.033991843 -0.00059342984
000210 9d 04 ae bc e4 8c 44 3b 92 e4 16 bc d7 35 6a bd
       -0.021242434 0.0029991204 -0.009209769 -0.057180252
000220 bc a2 12 3c bc e7 48 bc a0 30 de bc 3a 45 1e bd
       0.008949932 -0.012262281 -0.027122796 -0.03864024
000230 a0 e2 43 bd 6b ce de bc cb f5 cb 3a 85 9c 82 bb
       -0.04782355 -0.027198037 0.0015560923 -0.0039859437
000240 93 b4 1b bb d6 02 bf bb 18 a6 04 bc b9 33 b8 bb
       -0.0023758754 -0.0058291955 -0.00809624 -0.0056214
000250 11 7c 76 3c c1 6c 01 3d ef 9e bd 3c cc e4 a3 3c
       0.015044228 0.031597856 0.023147075 0.02000656
000260 c4 85 71 3a 26 b5 30 bc 4c 2f 34 3c 2a 2a a3 3a
       0.0009213353 -0.010785377 0.010997605 0.0012448479
000270 db b4 76 3a 17 31 64 bb 42 2a bb ba 71 3c 2d 3c
       0.0009411105 -0.00348193 -0.0014279562 0.010573492
000280 e3 44 2d 3c 03 5e 96 3c 72 2c 24 3d 57 7a 95 3c
       0.010575506 0.018355375 0.04008145 0.018246813
000290 dc 42 d2 3c 3c 2b 93 3c 26 6a b9 bb e2 09 2d bc
       0.025666647 0.017964952 -0.005658406 -0.010561438
0002a0 1c 80 94 ba c9 c7 e8 37 cf c3 b0 3b df ce f7 3b
       -0.0011329683 2.7749587e-05 0.005394436 0.0075625028
0002b0 ff 80 80 3b ec d7 ea 3c 3c 60 00 3d cb be 21 3c
       0.0039216275 0.028667413 0.031341776 0.009872149
0002c0 ee 7d e4 ba 9e cd 9c 3c 65 5e b3 3c 90 a4 58 3c
       -0.001743255 0.019141015 0.021895597 0.0132228285
0002d0 7f 4a ed b9 84 15 b2 3a 2e 2c f5 3b ab 2a 29 bb
       -0.00045259667 0.0013586734 0.0074820733 -0.0025812786
0002e0 a5 74 1d bb 44 c1 f0 39 c5 fe 84 3c 66 ba c0 3b
       -0.0024025824 0.0004592036 0.016234765 0.0058815954
0002f0 44 41 ba 3b f6 c1 94 3c fb de bb 3c 2c 68 b4 3b
       0.00568405 0.018158894 0.022933474 0.0055055823
000300 b6 8c 2d 3b 8b b7 d2 3c 43 da 14 3b cf a9 34 bb
       0.0026481575 0.025722286 0.0022713102 -0.0027567034
000310 46 8c 25 bb 51 98 97 bc fe 49 f0 3a 0e 05 1b 3c
       -0.0025260611 -0.018505247 0.0018332598 0.009461654
000320 c3 a2 77 3b 31 2f f6 bb 10 4d d6 3b 2d c0 0b 3c
       0.0037786223 -0.00751295 0.0065399483 0.008529705
000330 bb 4b a5 3c 45 f2 37 bb a0 6c 6f 3a c0 70 e3 bc
       0.020177713 -0.0028067988 0.0009133313 -0.027763724
000340 63 97 9a bc ec c8 3e bc 8e 56 ff bc eb 6b 22 bd
       -0.018871015 -0.011644583 -0.031169202 -0.0396537
000350 2a 5a 1e bb ce ad 36 bc 08 3c 3f bc 08 14 b7 3c
       -0.0024162629 -0.011149837 -0.011672027 0.022348419
000360 cd f6 9d bb c3 91 a3 3c 8a e3 65 bc 22 58 22 bc
       -0.0048206807 0.019966966 -0.0140313 -0.009908708
000370 45 1a 8c 3c d4 95 24 3c b7 4a ca bc fc 57 42 bd
       0.01710237 0.010045487 -0.02469383 -0.04744719
000380 4e d9 12 bd da 3d 1c bd e7 f9 8d bc 21 16 f4 bb
       -0.03585177 -0.038144924 -0.017331077 -0.007448927
000390 6e b9 65 3c e2 6b e4 3c be 40 26 3c fb 1a 7b 3c
       0.014021261 0.027883474 0.010147272 0.015326257
0003a0 7c 5f 9d 3c 07 78 03 3d 6d 74 57 3c 46 fb 4f bc
       0.01921057 0.03209689 0.013150317 -0.012694186
0003b0 37 07 bd bc 2a eb a9 bc 20 bb a9 bc 62 f5 51 bc
       -0.02307473 -0.020742018 -0.020719111 -0.0128148515
0003c0 50 1b 02 bb c0 9d 64 3c 38 62 c5 3c 06 06 5c 3c
       -0.0019852705 0.013953626 0.024094686 0.0134291705
0003d0 9c 37 1e 3d 99 a0 33 3d 98 5b 02 3d 55 90 ea 3c
       0.038627252 0.04385433 0.03182563 0.028633276
0003e0 63 ce 3d bb 41 78 23 bc 22 ad 96 bb 2c e9 70 bc
       -0.0028962127 -0.009977401 -0.0045982758 -0.01470403
0003f0 bc 2b ff ba db e2 e3 bb 8f df c5 3c 7d be 7e 3b
       -0.001946799 -0.0069545335 0.024154453 0.0038870864

fc.bias f4 [10]
000000 50 a8 1a bb 5c 79 ba 3c 15 46 02 3c 91 8b 84 bc
       -0.0023598857 0.022762947 0.007951279 -0.016179832
000010 57 40 5c 3b ed ba 4a bc e6 e2 9f b8 86 9e 37 3c
       0.0033607685 -0.012373668 -7.623974e-05 0.0112072285
000020 cb d9 80 bc 20 34 1c bb
       -0.015728852 -0.002383478
