MLOps_DTU_project/models/trained_model_Session1.pth (torch, 446814 bytes, 6 tensors)

cnn1.weight f4 [32, 1, 3, 3]
00000000: 7cd8 adbe 75e9 eabe 4ddc 50be ff68 953e
00000010: 2025 14be 744e ddbe adaa 0a3d 9350 a73e
00000020: 00d8 74be 928e 82bd f470 a43e e462 eabd
00000030: 623f 9bbe eba0 9dbe e9da 663e c503 353e
00000040: ec51 223e 1ac4 793e be03 d83e 8e10 8b3e
00000050: 0d82 a8be ef56 ce3e 9f7b 303e 789d e4be
00000060: d19a 5c3e 9e9f 9abe 29f8 04be 3741 10ba
00000070: 6722 b63e d640 9e3e ec27 8dbe e08f 1f3e
00000080: 56d2 8f3b d298 e53c 763d 98be 0119 0d3e
00000090: 8cbd 26be 4f6b ac3e 19d1 91be 287a e33e
000000a0: ae06 8f3e 3e57 66be 3f4d 303e 5217 7c3e
000000b0: f3d2 6cbe fbe8 a13e 57aa 1e3e 16d2 98be
000000c0: 4edd dc3e 5405 9abe ae77 f33d 1306 7abd
000000d0: 564c 993e 3ccc afbe 65e6 bbba 030b 3e3d
000000e0: bb26 bebe 8f9c 42be fb6c d73e bd31 8e3e
000000f0: 48ff 323e ca76 9cbe 0a45 753d 748b 4dbe
00000100: 03ff 283e 60c7 e43e d5a0 47be d0e7 d7bd
00000110: 7ddc 2cbd 366e 7f3e e3b7 923e dd5d cfbe
00000120: eee0 953e e31c e63c 713b efbe 3459 7bbe
00000130: 5c5c 703d 6a0a 4d3e 2d53 a03e 10ea 183e
00000140: 5e48 37be 07f4 a43e cbab 943e b631 913e
00000150: 03a8 62be 8fbb f3bc 5e1b 353e d5c6 86bd
00000160: 91d6 7ebe 9a99 e6bd b5da c33d 5875 d5be
00000170: 0f71 98be cc64 a2be 2368 89be bab0 153e
00000180: 8c9f 40be 503c 403e 8bde 173c 5598 c4bd
00000190: 5920 c7be ea31 453e 55ca c93e 26b5 0e3e
000001a0: 5ff9 153c c77e cd3e eb2f a6be a1d9 cabd
000001b0: 2b51 8f3c 8b27 5bbe 0503 c6be b37b 803e
000001c0: e33f 903e 4bea 933c 1f46 ab3e 8a52 b73e
000001d0: 5559 a93e e2c1 773e 5e43 3c3d 6cfa 953e
000001e0: fedd 8f3e 5e26 ab3d 66b8 56be f919 8d3e
000001f0: 11b6 35be 7355 03bd 8862 a7be d240 3c3e
00000200: 4e90 713e 26e8 6fbd fe16 b93e 34a6 363e
00000210: 07be 91be d124 f43c c832 893e 76c8 633e
00000220: 28bf 003d 9657 b6bd de85 8f3e 9893 9f3d
00000230: 3a5a 3dbe e8a2 b0be a89e 1d3e be63 a53d
00000240: 199f 033e 7bea 253c 3727 9c3e a26c dcbd
00000250: 7b67 e3bd 344f b73e 62a5 213e 4df1 c2be
00000260: c310 583e 5125 98bd 05dd f53e 4ecc db3e
00000270: feee 96be eb03 44be 9270 31be d23d 3a3e
00000280: 7b0d ebbe e370 ecbe c2f7 d7be 1af7 b5be
00000290: e3e7 33be 1f40 c0bd e029 65bd ac06 e73d
000002a0: 4f21 b03e b3ad b03e 5378 bb3e 4f3d 0cbe
000002b0: fb27 6dbd 8468 fabe 52c3 2bbc 960a 3ebe
000002c0: 5bac 99be 998f f13e 4a28 513e cec3 c33e
000002d0: 8cd5 c53e 8df4 993d 20cb 8f3e 3615 223e
000002e0: 83f6 06be a517 d4bd f333 123e eac0 b03c
000002f0: 8a97 773e d47e 6cbe 8a12 98be 387a 2abe
00000300: d57d b33e d8f8 57be 06b9 bc3e a8f4 e13d
00000310: 87ca de3e 0898 aa3e 6a33 4cbe 3f74 0d3d
00000320: 7ad5 8a3d cd4a aabe 833f db3e 62bf 313e
00000330: f7eb 3dbe c6f1 633e 9eb0 ef3e 2f4a c63e
00000340: d81b 2abe 15ae 77be dc4c e63e fb10 edbd
00000350: 8894 63be 738a 15bd 2380 26be f38d 11bf
00000360: ea8c c43e fff8 0e3e aff2 97be a0f8 143e
00000370: 2d4e 47bd 8320 cebe c0d2 353e a728 413e
00000380: 2bc8 42be d4ee 84bd 7360 9d3e ed59 923b
00000390: 5afc 103e 90f8 533d d17b febd ff97 743c
000003a0: 9b94 073e b188 943e b348 6b3e 87d6 a93e
000003b0: 1f4d 8fbe 3fa7 583d 3786 a73e c077 a63d
000003c0: a485 9ebd 786b bdbe 561e 503d 2dde f03c
000003d0: 6bf9 a0be baef c33a 33d0 1abb ce95 5b3e
000003e0: 04d5 563e 0dfb 653e d9e2 983d 96ea 51ba
000003f0: 648d 93be b876 b7be 50e4 423e bd75 adbe
-0.33954227 -0.4588124 -0.20396538 0.29181668 -0.14467287 -0.43223917 0.033854175 0.3267866
-0.23910522 -0.063748494 0.32117426 -0.11444643 -0.30321795 -0.30786833 0.22544445 0.17677219
0.15851563 0.24391213 0.42190355 0.27161068 -0.3291172 0.403007 0.17234658 -0.4465139
0.21543433 -0.30199903 -0.1298529 -0.0005502882 0.35573122 0.3090884 -0.2756952 0.15582228
0.0043890877 0.028026972 -0.2973439 0.1377907 -0.16283244 0.3367562 -0.2847984 0.44429135
0.27934784 -0.22494218 0.17216967 0.24618271 -0.23127346 0.31623062 0.15494667 -0.29847783
0.43137592 -0.3008219 0.118880615 -0.06104095 0.29941052 -0.34335506 -0.0014335631 0.04639722
-0.37138924 -0.19005035 0.42075333 0.27772322 0.17480195 -0.3055938 0.059880294 -0.20072728
0.16503529 0.4468336 -0.19494946 -0.105422616 -0.04220246 0.24944386 0.2865592 -0.405013
0.2927317 0.028089946 -0.46725038 -0.24545747 0.05868183 0.20023504 0.31313458 0.14933038
-0.178987 0.32217428 0.29037318 0.2835824 -0.22134404 -0.02975252 0.17686221 -0.06580893
-0.24886538 -0.11259766 0.095631994 -0.4169109 -0.29773757 -0.31717527 -0.26837263 0.14618197
-0.18810862 0.18773007 0.009269367 -0.095993675 -0.38891867 0.19257322 0.3941218 0.1393629
0.009153693 0.40135786 -0.32458434 -0.09904791 0.017494759 -0.21401803 -0.3867418 0.25094375
0.28173742 0.018056056 0.33451936 0.3580516 0.33075967 0.24195054 0.045962684 0.2929262
0.28099054 0.08356927 -0.2096878 0.27558878 -0.17745234 -0.032063913 -0.3269236 0.18384102
0.23590204 -0.058571003 0.36150354 0.17836839 -0.28465292 0.029802712 0.26796556 0.22244439
0.0314323 -0.089034244 0.2803182 0.07791823 -0.1849145 -0.34499288 0.15392554 0.08075665
0.1285366 0.010126705 0.3049867 -0.107629076 -0.11103722 0.35802615 0.15785745 -0.38074723
0.21100144 -0.074289925 0.48020187 0.4292931 -0.29479212 -0.1914212 -0.17328098 0.18187645
-0.45908722 -0.46179876 -0.42181212 -0.35540086 -0.17568927 -0.0938723 -0.05594814 0.112805694
0.34400412 0.34507522 0.36615238 -0.13695262 -0.057899456 -0.48907864 -0.01048358 -0.18558726
-0.3001431 0.4717987 0.20425525 0.38235325 0.38639486 0.075173475 0.2808466 0.15828404
-0.13179974 -0.10356072 0.1427763 0.021576364 0.24178901 -0.23095256 -0.29701644 -0.16648185
0.3505694 -0.2109102 0.36859912 0.110329926 0.4351389 0.33319116 -0.19941488 0.03453469
0.06778999 -0.33260193 0.42821893 0.17358163 -0.18547045 0.22260198 0.46814436 0.38728473
-0.16612184 -0.24187501 0.44980514 -0.115755044 -0.22224629 -0.03650899 -0.16259818 -0.5685722
0.3838876 0.13962172 -0.2967734 0.14547968 -0.04865854 -0.4025918 0.17756176 0.18863164
-0.1902167 -0.06490865 0.30737647 0.0044662864 0.14158764 0.05175072 -0.1242596 0.014928817
0.13240282 0.29010537 0.22976951 0.33171484 -0.27988526 0.052893873 0.32719585 0.08128309
-0.07740334 -0.36996055 0.05081018 0.029402817 -0.3144029 0.0014948763 -0.0023622632 0.21443865
0.20979697 0.2245905 0.07465143 -0.00080076733 -0.2881881 -0.35832763 0.19032407 -0.3387889

cnn1.bias f4 [32]
00000000: 4ee7 803e d337 b8bd 8baf e43d 1b58 c73c
00000010: 3efb 30be df5f aabd 02bf 36be 3357 cb3c
00000020: 7bd4 e0bc 3c5a ab3b 1d12 903e d76f bdbb
00000030: 6717 7fbe 3ba0 6bbe 6854 b7bd faaa 8f3c
00000040: c984 983c 536f 453e 5450 853d a6b4 e43c
00000050: 9df1 96be e061 21be cd6d 93bd ff25 423e
00000060: 6599 0e3d 120f 1abe b4e5 29bc dabe 00be
00000070: 523e 1d3e 2ac1 26bc d151 debc 491b a9bd
0.2517647 -0.089950226 0.11166295 0.024334004 -0.17283341 -0.08319067 -0.17846301 0.024821853
-0.027445069 0.0052292626 0.2813882 -0.0057811546 -0.24911271 -0.23010342 -0.08951646 0.017537583
0.018618004 0.19280748 0.06509462 0.027918171 -0.2948121 -0.15759993 -0.07198677 0.18959807
0.034814257 -0.15044811 -0.010369707 -0.12572804 0.15355805 -0.01017789 -0.027138622 -0.08257157

cnn2.weight f4 [64, 32, 3, 3]
00000000: 4af8 1d3d af4a c33d 0843 9f3d 58a5 6a3c
00000010: 019c eebc 2399 8b3d cf6a 02be 0d88 20bc
00000020: 6656 543d 821f 41bc 8d9f 89bd 688a 98bc
00000030: 176f 953d 9fdf 653d 6ab4 72bc fc0e 5b3d
00000040: 8339 69bd ccf2 0f3d 310b 05be c091 07be
00000050: e6ac dabd cdc9 9abd 6e81 8ebd ac3b 3fbd
00000060: f814 efbc 3ffa cebd f8e5 52bd 6d8d 21be
00000070: 93a6 23be 2918 a4ba 0ad7 8ebd 42b7 1abe
00000080: 65d7 3cbe f10d b4bd 1e11 dabd 14d6 e6bd
00000090: a7da 24be 8262 62be c4c1 06be bf31 f6bb
000000a0: 101d e7bd 9649 78bd a0be 25bc 2003 d9bc
000000b0: 05ce a1bd 6b3c 84be 0c9d 18be 433a 2ebe
000000c0: 4980 1dbe 3330 42be 887d 12be dcf6 583d
000000d0: 5e28 563d 060b 53bd 5221 1fbd f845 993c
000000e0: c394 44bd e662 f53d 0f83 c03c f2d3 c13c
000000f0: 44de ea3d 7cdd 5f3d 1326 393d 0a05 bb3d
00000100: cd49 523d 059c 253d bfeb cfbb d7a3 86bd
00000110: 82cf 403d 2455 3fbe 5aa4 8abd 6236 0ebd
00000120: 56ff a5bd 6782 dfbc 72cf 82bd f2ec 1a3d
00000130: 24ff 963c c848 57bc bb2f eabb f702 31bc
00000140: a23d 573d eb32 2ebe 813f 21be ddfd 83bd
00000150: 2697 f7bd 20fa 87bd 84cf 71bd 37bb d3bb
00000160: f922 dbbc 1f38 a23c a679 26bc 7d95 d8bc
00000170: a193 353c 446b 8fbc 36c3 d1bc cc61 43bc
00000180: cfa5 b7bd 4b9d 6fbc 546b 7fba 92dd 9bbc
00000190: 7005 a2bd cfde fdbc 6f5e 153d f03b edba
000001a0: a864 e6bc f697 e63d 2c14 693d e10e 25bb
000001b0: bba1 cb3c 025b 11bd 826e 35bd 52cb 113e
000001c0: e82c 8a3d 2e83 cf3d 33f8 a63d eda8 cf3d
000001d0: 44b7 4d3d 9c36 49be 6536 18be 4d21 b5bd
000001e0: 6d68 4abd 8c16 33bd 1190 81bd 077b 613d
000001f0: fa79 1b3c b5b0 603c e0de 4fbe 7336 7cbe
00000200: 593b 07be c47b 05be 99a9 1dbe db53 febd
00000210: 41e3 85bd 1ff6 d7bd ed2b b4bc 8b96 8cbd
00000220: 0a62 fbbd 03a4 17be e3e4 9cbd d6e1 0bbd
00000230: 42b6 613c 002e 8a3d 7b85 363d 6428 eebb
00000240: 033b b1bd 1fbf d1bd 7be1 9ebd b5c5 27bc
00000250: 29e2 8abd c5c9 7fbd 037e 983d cde9 7a3d
00000260: a263 ffbc 889a bbbd 8de6 2ebd 90c6 953d
00000270: 19c4 d2bd c12a 75bc 6db0 18bd d972 eabc
00000280: 86fa 41be 209e b7bd 661c 2b3e f6e3 aa3c
00000290: 6b30 17bc 6a1d bd3d 5c89 d83d fffe 993d
000002a0: da61 fd3d c524 b03d f594 083e 006f 773d
000002b0: 3680 9f3d 27e8 91bd b24e 3b3e 5e1d d23d
000002c0: 780c 2a3e 9422 063d f8b3 033e 7a47 113e
000002d0: b5c5 0fbe 8792 28be 4c13 dcbb f7f6 e9ba
000002e0: 0528 08bd 38b2 c2bc 2d8f 123d f052 cfbc
000002f0: f836 bcbc 346e d13d f26d 1cbd 1044 82bd
00000300: 2bff c63d 6dfe 033d 27a7 843d 4aed bb3c
00000310: 9773 cf3d c76d f73d aa65 e1bd 87cc 4ebe
00000320: f373 09be ad4f 18bc 5dcc 0cbe 3304 8ebd
00000330: a1d1 54bd 082b 94bb 4b31 d0bd 4f2b c6bd
00000340: 1942 c8bd 57e8 3cbd 1507 12be 2b10 84bd
00000350: 5e16 cfbc f9c8 3dbe 6843 44be c07c 19be
00000360: f7de 58be de12 5abe fba2 2dbe 1f82 0ebe
00000370: dbc1 35be 4c29 2abb 42a8 23be 50fb 39be
00000380: 515a afbd 147b b0bd aa0a 9bbd f302 eabd
00000390: 6b2c 8a3d 1389 debb 0c9c 2dbd 631d b03d
000003a0: e823 b03d 35de 473d 96d9 18be b68e 96bd
000003b0: a6c8 fabd db90 ebbd 6acd c1bd 7ea2 9ebd
000003c0: 3ef2 a5bb 5704 9f3c 2760 213d f537 c53b
000003d0: 7b80 013c 1224 63bd d290 7a3d 9125 9f3d
000003e0: 2fb0 fa3c cb18 a53d b2aa 743d 1be3 e43d
000003f0: a253 ad3c 2771 b7bc f50e 473c 8552 c13d
0.038566865 0.09535729 0.07776457 0.014321648 -0.029127123 0.06816318 -0.12736057 -0.009798062
0.05184021 -0.011787297 -0.06719885 -0.018620685 0.07296579 0.056121465 -0.014813522 0.053481087
-0.056939613 0.03514366 -0.1299255 -0.13239193 -0.10677509 -0.07558022 -0.069582805 -0.046687767
-0.029184803 -0.101063244 -0.051488847 -0.15776606 -0.15981512 -0.0012519407 -0.06974609 -0.1510897
-0.18441541 -0.087917216 -0.10647796 -0.11271301 -0.16099034 -0.2210789 -0.13159853 -0.0075132544
-0.1128484 -0.060617052 -0.010116249 -0.026490748 -0.07900623 -0.25827345 -0.14903659 -0.17014413
-0.15380968 -0.18963699 -0.14305699 0.0529698 0.05228459 -0.051524185 -0.038850136 0.018710122
-0.047993433 0.11981754 0.023499994 0.023660634 0.11468175 0.054654583 0.045202326 0.091318205
0.051339913 0.040431995 -0.006345242 -0.06574219 0.047072895 -0.18684822 -0.06769629 -0.034719832
-0.08105342 -0.02728386 -0.06387223 0.037823625 0.018432207 -0.013139911 -0.007146803 -0.0108039295
0.052549012 -0.17011611 -0.15746881 -0.06444905 -0.12089376 -0.066395044 -0.059035793 -0.0064615267
-0.026750075 0.019802151 -0.010160839 -0.026438469 0.011082561 -0.017507203 -0.02560578 -0.011925172
-0.08967172 -0.014624904 -0.0009743471 -0.019026551 -0.07911193 -0.030990032 0.036467012 -0.0018099528
-0.028124169 0.11259453 0.056904003 -0.002518587 0.024857393 -0.035487182 -0.04429484 0.14237717
0.067468464 0.101324424 0.08152809 0.10139642 0.050223604 -0.19649738 -0.148645 -0.08844242
-0.049415994 -0.043722674 -0.063263066 0.05504897 0.009489531 0.013714005 -0.20299864 -0.24630146
-0.13206233 -0.13035494 -0.15396728 -0.12418338 -0.06537486 -0.10544991 -0.021993602 -0.06864651
-0.12274559 -0.1480866 -0.07660844 -0.03415092 0.013776364 0.06747055 0.04456089 -0.0072679985
-0.08653834 -0.102415316 -0.07757851 -0.010240008 -0.06781418 -0.06244828 0.0744591 0.061258126
-0.031175438 -0.09160334 -0.04270034 0.073132634 -0.10291309 -0.014963807 -0.037277628 -0.028619217
-0.18943223 -0.08965707 0.16710052 0.020860653 -0.009227852 0.09234126 0.10573074 0.0751934
0.12372179 0.08600763 0.13338073 0.060408592 0.07788126 -0.07124358 0.18291739 0.102595076
0.16606319 0.03274782 0.12861621 0.14187422 -0.14040263 -0.16462146 -0.0067161676 -0.001785009
-0.03324129 -0.023766622 0.035781074 -0.025308102 -0.02297543 0.10226098 -0.03819079 -0.06360638
0.09716638 0.03222506 0.06477194 0.022940297 0.10129469 0.12081485 -0.11005719 -0.20195208
-0.13423137 -0.00929634 -0.13749833 -0.06934395 -0.05195773 -0.0045217313 -0.10165652 -0.09676229
-0.09778232 -0.046120014 -0.14260514 -0.06448396 -0.02527922 -0.18533696 -0.19166338 -0.14988995
-0.21178804 -0.2129626 -0.16956703 -0.13916825 -0.17749731 -0.0025964556 -0.15982154 -0.18162274
-0.08562148 -0.08617225 -0.075703934 -0.11426344 0.06746753 -0.006791243 -0.042385146 0.08599355
0.086005986 0.048795898 -0.14926752 -0.07351439 -0.12245302 -0.11502238 -0.09463008 -0.07745837
-0.005064278 0.01941125 0.03939834 0.0060186335 0.007904167 -0.05545432 0.061173268 0.07770837
0.030601589 0.080613695 0.0597331 0.111761294 0.021158043 -0.022392822 0.012149562 0.094395675

cnn2.bias f4 [64]
00000000: 6a06 debc 3305 363d be5b 1fbd 5489 12bd
00000010: 49d1 6cbb e1b8 2ebd 3a3c 4bbc b417 2ebd
00000020: 6a60 35bd dfc8 423d ed08 32bd b764 503d
00000030: 81d5 803c 2f81 573d 4e22 83bc 5fec 053d
00000040: e3ee afbd 240c b3bc 5ae4 13bc 045a 2a3c
00000050: 0353 02bc 455a cc3c 3c63 cc3b 084a 0bbd
00000060: 988e febc 63af 49bd 34d5 7cbd a288 0fbd
00000070: d97f 2cbd 12b1 17bd 30d5 c2bc ca17 b53b
00000080: 6735 f43c 6201 45bd 7390 a5bc 287e 7cbd
00000090: b12c 99bd 60f0 f03c a9ff 88bb 5b8c 78bd
000000a0: 84eb edbc f2c2 c4bc d088 10bd 70c8 9e3c
000000b0: dd60 d8bc 5a0a 28bd b9ed 84bd a7f5 983b
000000c0: 20c6 a1bc 95bc 45bc af35 f23c 9569 783d
000000d0: 8d36 48bd 134a 803c c789 c83c 52e3 773c
000000e0: a38e d6bc b4b7 d0bc dfdc 1bbd 9433 933c
000000f0: a5ca 0fbe d0ff 373c 3059 92bd 8e90 c6bd
-0.027102668 0.044438552 -0.03890585 -0.035775498 -0.0036135486 -0.042656783 -0.012404496 -0.042503074
-0.0442814 0.047554847 -0.043465544 0.0508773 0.015726807 0.052613433 -0.016007569 0.032696124
-0.08590486 -0.021856375 -0.009026611 0.010397438 -0.007954362 0.024945388 0.0062374156 -0.03400615
-0.031073853 -0.049239527 -0.061726764 -0.035042413 -0.042114113 -0.0370341 -0.023783296 0.0055265175
0.02981062 -0.048097022 -0.02021048 -0.06164375 -0.07479227 0.029411495 -0.0041808677 -0.06068073
-0.029042967 -0.024018738 -0.035286725 0.019382685 -0.026413376 -0.041025497 -0.064906545 0.004667956
-0.019747794 -0.012068887 0.029566614 0.060647566 -0.04888015 0.015660321 0.02447976 0.015129881
-0.026191061 -0.025478221 -0.038052436 0.01796893 -0.14042147 0.011230424 -0.071459174 -0.0969554

fc.weight f4 [10, 9216]
00000000: c8d3 013b 7fae 02bd 719d e8bb b9f8 27bc
00000010: 8a67 bd3c 6e25 993c 4f12 013d 552e 333d
00000020: cf1f 8f3d 214e 8dbc ef84 edbd 79ca b3bd
00000030: bf56 e4bc 3766 7dbd 3183 5dbd 8f1c b1b9
00000040: 7182 893c 90bd fb3c 5448 ae3a 8ade 88bc
00000050: cc96 7c3c 0e8d 153c a8ee 883d add2 343d
00000060: 8ab2 59bd edfa 61bd 0fa0 fcbc d20b 81bc
00000070: a4ed 613c 07cb 643d 6c78 603c 9805 78bc
00000080: 618c 29bc d932 0fbb a197 013d d38f 713d
00000090: ece1 7ebb 123b e13c 92d9 543c 26ed 773c
000000a0: b8a5 6f3d 3ff0 b03c 2f02 73bc 5827 17bd
000000b0: 2052 0cbd 9f77 30bd 2a97 a83a f42d 883c
000000c0: 3001 1a3d de33 e7bb 7a50 e5bb 4b32 953d
000000d0: f36f 9a3d b68c 83bd 283f cebd 1289 84bd
000000e0: 7519 63bd 4d15 6fbd 116f 4fbd 2fc4 d8bb
000000f0: f6d6 29bd f449 9abd bab2 11be dc66 f5bd
00000100: 6e5f f7bd ba26 e0bd ae41 6ebd ebb2 debd
00000110: 951a 2fbe f289 1fbe eaab 67bd 02d7 adbc
00000120: 184e b7bd 7a84 f3bd d055 01be a217 10be
00000130: 75d9 46bd 94a9 5ebd 80af a6bc b4ac 6cbd
00000140: 0093 e9bc 51c4 5bbd adf5 e6bd c017 efbd
00000150: d56e 34be 9018 08be 1ea8 1ebd 63fb ccbc
00000160: b65a 2ebc e613 123c 2f73 583c ea24 363c
00000170: fd5b 303d 98a4 303d bb66 03be e1e7 d2bd
00000180: 8c0b 96bd 0467 8dbe bdf0 14be 0a7d 3abd
00000190: ff76 bfbb 760f 273d 7aaf 343d 3e2c 863d
000001a0: ffa7 c03d 041b 88bc 1b00 1cbe 6ad7 0dbe
000001b0: c1ad 9cbd c1d8 26be 5ba6 cdbd 16fc 97bd
000001c0: 1234 6fbd 28f4 90bc a3f9 3a3c c1fc 653d
000001d0: b1ff 833d 5e5d 13bc 643f cabd d279 59bc
000001e0: eff5 5dbb 9852 72bc 4973 a7bd 1af2 44bd
000001f0: 193e 7bbd f563 8ebc 1c0a 773c 87e9 cd3d
00000200: 0b10 643d 28a3 66bd f827 85bc 079f 0d3b
00000210: 1620 f13b 5e9d 1a3c a855 b5bb 8526 25bd
00000220: 7584 15be 565a 2dbe 95c2 a9bd 5918 9fbd
00000230: fd0e c8bd 15f6 8bbc 116d ab3a 1067 713b
00000240: f0e6 54b9 4eae 5a3c 7fe3 f6ba fbe0 763c
00000250: 2fcd 043d 8f18 093d 2efa b6bb ee35 5dbc
00000260: 8ed5 273d 88cb ad3c 7df1 97bc daa9 cabb
00000270: 9359 d0ba d652 223c c714 d33c 0c6c 713c
00000280: 5bcc d93c 72f4 873c 21a3 f33c cc35 cc3c
00000290: e102 9a39 b3a4 933b 9e68 9e3b 4202 7e3c
000002a0: 72fb 393c 0378 b73c 9e0a 99bc edd8 1ebd
000002b0: ed33 9abc 7838 8f3c e7b3 f23c 43d4 71bc
000002c0: 6a1e 8cbc b57b 823c bd23 93bc b7f3 5fbb
000002d0: 5c9e 32bc dcfc 20bd f20f 24bd a303 6bbd
000002e0: b622 efbd 672a 4cbd f3ce a53d f30d 653d
000002f0: e755 68bc 469b 27bd b605 38bc 35a5 83bc
00000300: 56fa 6fbc 7909 e7bc bf75 22be 5792 3abe
00000310: 40f7 c3bd 0aaf 6ebd 2f57 34bd f40b 9fbd
00000320: 0fa9 d1bd d922 0a3d 334d 0fbd 6467 f4bc
00000330: ee36 33bb 9c34 6b3c 5fee 18bd 1126 8fbc
00000340: ad33 223c 6c4c a23c 9e10 8ebc ce88 cebb
00000350: 459b 1fbe 7e6a f8bd 5054 0bbd 7f33 dbbc
00000360: 857a f3bb 7db9 9cbc ad22 313d c8a7 8f3d
00000370: e57b b9bc 113f 933d fc49 713d d107 5e3d
00000380: 6821 f7bd de4c f5bd 94a9 2dbe 0bb7 31bc
00000390: edf3 d5bb 619b c0bc f2ae cbbc 49dc 003d
000003a0: 962f 303d d770 673c 508f 5f3d 4c89 243d
000003b0: 603c ecbd 2416 2dbe 11d6 a5bd 4540 e6bc
000003c0: e867 e1bc 7c08 68bd 1a28 6abd b7ce ccbd
000003d0: 8c38 92bd 5d8d 9bbd 1469 193d 7490 083d
000003e0: c406 043c 7f3e 87bd 7693 293b 9980 693c
000003f0: 100f c13b 29fc c8bc 5129 fabb 8406 c3bd
0.001981007 -0.031904694 -0.0070988466 -0.010252171 0.02312066 0.018694606 0.0315116 0.043745358
0.06988489 -0.017249169 -0.11597621 -0.08778853 -0.027873395 -0.061865058 -0.054080192 -0.0003378135
0.016785832 0.030730039 0.0013296702 -0.016707677 0.015416812 0.009127868 0.06686145 0.04414623
-0.053148784 -0.055170942 -0.03083804 -0.015752707 0.013789568 0.055857684 0.013700586 -0.015138052
-0.01034841 -0.0021850376 0.031638745 0.058975052 -0.0038891984 0.027493987 0.012991326 0.015132224
0.05850765 0.021598933 -0.014832064 -0.036902755 -0.034258008 -0.04308283 0.0012862433 0.016623475
0.03759879 -0.0070557436 -0.006998119 0.07284983 0.07540884 -0.06423323 -0.1007064 -0.064714566
-0.0554442 -0.058369923 -0.05064303 -0.006615184 -0.04146477 -0.07533637 -0.14228335 -0.119825095
-0.12078749 -0.109448865 -0.058168106 -0.1087397 -0.17099984 -0.15579966 -0.056560434 -0.021220688
-0.08950442 -0.11890502 -0.12630391 -0.14071515 -0.048547227 -0.05436094 -0.020347357 -0.05778189
-0.028512478 -0.05365402 -0.11277328 -0.11674452 -0.17620404 -0.1329062 -0.038734548 -0.025022214
-0.010641744 0.008915877 0.013211056 0.011117199 0.043056477 0.04312572 -0.12832157 -0.10298134
-0.07326421 -0.27617657 -0.1454496 -0.045529403 -0.005843043 0.04078623 0.04411266 0.06551407
0.09407043 -0.016614445 -0.15234415 -0.13851705 -0.076503284 -0.16293623 -0.100414954 -0.074211285
-0.058399267 -0.017694548 0.011412057 0.056149248 0.06445254 -0.008994428 -0.09875372 -0.013273673
-0.0033868512 -0.0147902 -0.08176286 -0.04808245 -0.061338518 -0.017381648 0.015078094 0.100543074
0.055679362 -0.05630794 -0.01625441 0.002160968 0.0073585613 0.009436933 -0.0055338927 -0.04031994
-0.1460131 -0.16928992 -0.08289067 -0.07768316 -0.09768484 -0.017085114 0.0013078769 0.0036835112
-0.00020303926 0.013347222 -0.001883611 0.015068288 0.03242224 0.033470687 -0.005584023 -0.013501627
0.040975146 0.021215215 -0.018547768 -0.0061847987 -0.0015895836 0.009907445 0.025766743 0.014735233
0.026586702 0.016596053 0.029740872 0.024927996 0.00029375314 0.0045057177 0.0048342487 0.015503468
0.011351453 0.022396093 -0.01868182 -0.038781095 -0.018823588 0.017482981 0.0296268 -0.01476008
-0.017104346 0.015928129 -0.017961377 -0.0034172365 -0.010902014 -0.039303645 -0.04005427 -0.057376515
-0.116765425 -0.049845126 0.08096113 0.055921506 -0.014180637 -0.040919565 -0.01123183 -0.016069988
-0.014647087 -0.02820276 -0.15865229 -0.18219887 -0.095686436 -0.0582724 -0.044028457 -0.07765952
-0.102373235 0.03372464 -0.034985732 -0.029834457 -0.0027345973 0.014355805 -0.037336703 -0.017474206
0.009900016 0.019811831 -0.017341908 -0.0063029295 -0.15586574 -0.12129687 -0.034015954 -0.026757954
-0.007430377 -0.019131416 0.04324596 0.070144236 -0.022642085 0.07189763 0.058908448 0.054206673
-0.120669186 -0.11977552 -0.1695922 -0.0108468635 -0.0065293224 -0.02351159 -0.024863694 0.03146008
0.04301413 0.014126024 0.054580033 0.04017 -0.11534953 -0.16902977 -0.080974706 -0.028106818
-0.027515367 -0.056648716 -0.05716715 -0.10000365 -0.07139692 -0.07595322 0.037453726 0.033340886
0.008058254 -0.06603717 0.0025875247 0.0142518515 0.005891688 -0.024534302 -0.00763432 -0.09522727

fc.bias f4 [10]
00000000: c3cf 5ebc 18c7 353d cc7e 95bc ce2f 94bc
00000010: b12c 133b ecfd 1fbc 845c eebb b223 0d3d
00000020: 5337 cbbc dbbe 08bc
-0.013599339 0.044379324 -0.018248938 -0.018089201 0.0022457058 -0.00976513 -0.0072742123 0.03445787
-0.024806654 -0.008346285
