MLOps_DTU_project/models/trained_model_Session1.pt (torch, 446814 bytes, 6 tensors)

cnn1.weight f4 [32, 1, 3, 3]
000000 64 55 86 3e 97 2b a7 3e d1 f4 77 be 3a b4 83 3e
       0.26237023 0.32650444 -0.24214484 0.2572344
000010 cf 7b 99 3e 16 4a b0 be e4 24 96 3e 56 b2 e5 bb
       0.2997727 -0.34431523 0.2932502 -0.0070097847
000020 e4 53 61 3c 18 1b c4 3e e6 6a 0a ba 94 7a 76 3e
       0.013752911 0.3830192 -0.00052802113 0.24070197
000030 c1 b8 8f be 7d af a0 3e 87 40 23 bd 3d 9a 00 be
       -0.28070644 0.31383887 -0.03985646 -0.12558837
000040 5a 3b 3c be e5 3f e0 3d 48 04 19 3d 8e 56 3e 3e
       -0.18382016 0.10949687 0.0373576 0.18587705
000050 7c a3 c7 3d c5 99 28 be 15 8b 63 be 08 66 f1 bd
       0.09747979 -0.16464908 -0.22221024 -0.11787039
000060 33 6e d0 bd 82 6a cd 3d 06 97 fa bd 4e a9 71 3e
       -0.10177269 0.100300804 -0.12235837 0.23599741
000070 bd 96 24 3e 6d a3 10 3e 92 97 96 be e4 cc 8d 3d
       0.16073127 0.14124842 -0.29412514 0.069238454
000080 39 be 36 bd 25 e2 0e be 7e 1a a5 bd 96 da 0d 3e
       -0.044615004 -0.13953455 -0.080616936 0.13852915
000090 cd ff 7c bd 3e 72 68 3d 70 5f 3b 3e 4a 45 5a bd
       -0.061767388 0.056749575 0.18298125 -0.053288735
0000a0 de 6c 04 3e 88 18 42 3e d0 91 a5 3e 2c 55 56 3e
       0.12932155 0.1895467 0.3233781 0.20930928
0000b0 40 0a a8 3e e0 8c 8f be 7f a9 03 be 40 dc ca 3d
       0.3282032 -0.28037167 -0.12857626 0.099052906
0000c0 a0 fe 68 bd bc 6d 5e be b9 9e c3 be 5f 62 c9 3e
       -0.056883454 -0.21721548 -0.38207033 0.39332864
0000d0 d3 83 88 3d 0a 71 15 be 03 24 a9 3e 07 d1 e0 3d
       0.066657685 -0.14593902 0.33035287 0.10977369
0000e0 c4 83 bb bc 25 6c 88 be 35 23 c1 bd 61 19 1e be
       -0.02288998 -0.26645008 -0.09430543 -0.15439369
0000f0 5d 84 8f bd 8b 7a 7b be 7f 71 5f 3d 95 8f d1 3e
       -0.07007668 -0.24558465 0.054551598 0.40929857
000100 35 95 66 be 1b 1d c7 3e e0 32 47 3e dd 53 5e 3e
       -0.22517855 0.38889393 0.19453001 0.21711679
000110 b6 1e 5c be 80 f7 4a be e1 87 a7 be 68 71 68 be
       -0.2149609 -0.19820976 -0.32720855 -0.22699511
000120 8c 0a 26 bd aa 0b 8b be fc 29 99 3e de 34 8b 3e
       -0.040537402 -0.27157336 0.29914844 0.27188772
000130 9d 2e bd 3e d7 52 26 3e 89 8b 7f 3e b1 b8 cb 3c
       0.36949626 0.16242538 0.24955572 0.024868341
000140 ca 77 af 3e 3f 8d bd 3e a2 53 95 3e e8 4a 7c 3e
       0.3427108 0.37021825 0.2916537 0.2463795
000150 4b c4 0c 3e 70 76 96 3d 92 0b 04 3e d4 fb 99 be
       0.13746755 0.07346809 0.12895039 -0.30074942
000160 de 47 25 be 83 fd 31 be da 91 99 be 6a 78 16 be
       -0.16140696 -0.17381863 -0.29994088 -0.14694372
000170 23 79 7a bd 2f d3 5c bd be 8b ba 3e 02 0f a4 3e
       -0.06115068 -0.053912338 0.3643474 0.320427
000180 f6 37 72 3d 05 39 72 be fc fe 99 3e d4 87 e9 bd
       0.0591354 -0.23654564 0.3007735 -0.1140286
000190 d1 61 ad 3c ce c4 c8 be 03 6d ca 3e 60 29 b8 bc
       0.021164807 -0.3921265 0.39536294 -0.022480667
0001a0 c9 79 57 3e f4 ac 29 be c0 83 9d 3e b0 06 3b 3e
       0.21042551 -0.16569883 0.3076458 0.1826427
0001b0 ae 50 7c be 53 69 81 be ae 9b b7 3e 82 1b a5 3e
       -0.24640152 -0.25275669 0.35860962 0.3224755
0001c0 0b c8 51 3d 0b 4a 1f be 30 85 e7 3d c6 55 ee bc
       0.051216166 -0.15555589 0.113047004 -0.029093634
0001d0 da 46 9e bc a7 ea 8a be 74 3e ed bd 2e 2e 7e be
       -0.019320894 -0.2713215 -0.115841776 -0.24822304
0001e0 08 d0 ac be 28 e3 a9 be d2 b9 c3 3a 91 b0 27 3a
       -0.33752465 -0.3318112 0.0014932698 0.0006396855
0001f0 0a a0 26 be 75 99 6d be 4c 51 bc bd b2 ff 0d be
       -0.16271988 -0.2320307 -0.09195194 -0.13867071
000200 75 d2 b3 bd 37 60 1f be e8 68 ac 3e 81 36 d3 bc
       -0.08780376 -0.15564047 0.33673787 -0.025782825
000210 c0 16 d3 3e ae 29 bd bd fa 2c a2 3e 40 29 95 3d
       0.41228294 -0.092364654 0.3167494 0.072832584
000220 2f 2a ab 3e 7f a3 cb 3d cb e9 8b bd 09 c1 91 bd
       0.3343062 0.09943294 -0.06831702 -0.07116897
000230 f0 bb b2 3e 1a af 90 be de 5d 26 be e7 be ac 3e
       0.3490901 -0.28258592 -0.16246745 0.33739397
000240 53 fb 55 3c 89 34 47 be 32 36 0c 3e 93 2f 80 be
       0.013060409 -0.19453634 0.13692549 -0.25036296
000250 04 5e 58 be c7 e7 e7 3c fa 6e 8e be 30 df 1b 3e
       -0.21129614 0.028308762 -0.27819043 0.15221858
000260 82 27 ae be f8 6e d7 3d 4a 6c 0d 3e f5 2e df bd
       -0.34014517 0.105192125 0.1381084 -0.10897628
000270 ca 91 ad 3e d7 8c 7b be 1b 3c 97 bd 6d 11 e4 3e
       0.3390029 -0.24565445 -0.07384511 0.44544545
000280 eb d7 bc 3b 8c aa 72 be 70 c6 a9 3e d9 53 c4 3e
       0.005763044 -0.23697871 0.33159208 0.3834522
000290 1c 4d a0 3d b5 ba a3 3e 2b cb 9e 3e e9 ec 99 3e
       0.078272074 0.31978384 0.3101438 0.3006356
0002a0 4b 3a b8 be d9 5a 7e be b0 d8 e1 3c 8d 8a d2 bd
       -0.35981974 -0.24839343 0.027569145 -0.10280333
0002b0 d2 4e b5 be c7 2b 1f 3d 90 22 3b 3d b2 3a 5b 3d
       -0.35411698 0.03886011 0.04568726 0.053522773
0002c0 c4 8e ab 3e 22 1f 85 3c 0d 8a 6c 3e ea 96 7d be
       0.3350736 0.016250197 0.23099537 -0.247646
0002d0 67 c1 91 be be f8 a4 be 73 0c 00 be 08 44 50 3e
       -0.28467867 -0.32221025 -0.12504749 0.20338452
0002e0 d9 bf c0 be e2 d6 82 be fd 37 63 be 74 05 80 3c
       -0.37646368 -0.25554568 -0.22189327 0.0156276
0002f0 23 c7 7b 3d b1 21 26 be ab 09 d7 3e 26 72 98 bd
       0.06146921 -0.1622379 0.41999564 -0.07443647
000300 7f 5a a5 be 69 b8 d3 3e af 30 98 3d 7b 3d a3 be
       -0.32295606 0.4135163 0.07431161 -0.31882843
000310 a7 bf 1b 3e 42 4b ef bc 49 a0 0e be e0 d7 b6 3e
       0.15209828 -0.02921069 -0.13928331 0.35711575
000320 64 fd 78 bb 7f 55 02 3d 45 d9 38 3e 4c ba 9a 3c
       -0.003799283 0.031819817 0.18051632 0.018887661
000330 af b5 04 3e 88 a8 4a 3e 3d 1e 4c be 5b c8 23 3e
       0.12959932 0.19790852 -0.1993341 0.15994398
000340 bb aa 48 3e a8 5e 4f be 7c 84 21 bc 39 4b 98 be
       0.19596379 -0.20250952 -0.009858247 -0.2974489
000350 b5 b2 69 be f3 1a 6b 3e 37 af 6e 3e a2 9e 9c be
       -0.22822078 0.22959499 0.23309027 -0.30589777
000360 fb e8 d6 be 72 af 1c be 8d 54 b7 3d 2b 01 42 be
       -0.41974625 -0.15301302 0.08951674 -0.18945758
000370 e1 4f e8 bd 96 c9 c7 3e 11 d3 22 be c1 e6 51 be
       -0.11343361 0.39020985 -0.15900828 -0.20498182
000380 00 85 a9 3e 45 12 b0 3e 1b 59 80 be 44 b2 0c be
       0.33109283 0.3438894 -0.25067982 -0.13739878
000390 90 6e 31 3e 53 c3 9d 3e ec a5 a9 be fc 3d 2c 3e
       0.17327332 0.30813083 -0.331344 0.1682052
0003a0 ed 63 08 3e e1 72 69 be b9 e0 10 3e 19 5c 82 3e
       0.13319369 -0.22797729 0.14148225 0.2546089
0003b0 91 d6 9e 3d df 22 7a 3e ac eb cf 3d 04 a1 35 be
       0.07755769 0.24427365 0.10152373 -0.17737204
0003c0 e2 fc 2a bd da 17 9f 3e 86 10 ae 3e eb 1e 5a 3e
       -0.041745074 0.31072885 0.3399698 0.21300857
0003d0 a4 f0 00 3e 9b ad 90 3e dd 3d 0f bd ee 7e a3 3e
       0.12591797 0.2825745 -0.034971107 0.31932777
0003e0 71 b9 b5 3b 26 42 4d bd 80 76 9f 3e e7 67 83 be
       0.005545788 -0.050111912 0.31145096 -0.2566521
0003f0 c3 2b bf 3d 65 ba c7 bd d9 92 ab 3e af aa 78 3d
       0.09334519 -0.09752349 0.33510473 0.06070965

cnn1.bias f4 [32]
000000 43 8a 5b be c7 e3 07 be e9 6c b3 3d 51 b4 19 3d
       -0.21439461 -0.13270484 0.08761007 0.03752548
000010 9c 6f dd 3d a1 95 09 3e 29 9c 98 3e f3 89 49 3e
       0.108123034 0.13435985 0.2980664 0.1968153
000020 68 b2 f3 bc ad 16 4d 3e 20 35 55 3b ed 94 2a 3e
       -0.029748157 0.20028181 0.0032532886 0.16658373
000030 93 7e 83 be 17 79 fe bd 3a af 19 3e 9e 55 96 bd
       -0.25682506 -0.1242544 0.1500825 -0.07340549
000040 40 07 8c be ce ec 9b 3e 8d 49 72 3e 5e 62 6e 3e
       -0.2734928 0.30454105 0.2366087 0.23279712
000050 c4 98 f8 bd 76 f2 07 3d fc 48 79 be 1c e9 ad 3e
       -0.12138513 0.033190213 -0.24344248 0.3396691
000060 23 ef a7 3d ab d1 44 3e 56 bd 74 3e 76 10 10 3e
       0.081999086 0.19220607 0.23900351 0.1406878
000070 3c 93 6e 39 7b 5a 0e 3e 2f ec d9 3d 35 38 a5 3c
       0.00022752298 0.13901703 0.106407516 0.020168403

cnn2.weight f4 [64, 32, 3, 3]
000000 a0 99 c9 3c 5a c5 30 3d 74 6a 71 bd 8b 6e 3b 3d
       0.024609387 0.04315696 -0.058939412 0.04575972
000010 07 fb 0e 3d 06 77 42 3d e0 55 55 3c e5 4f df 3d
       0.034907367 0.04747679 0.0130209625 0.109039105
000020 20 b2 10 3e 4a 88 c0 3d 71 2e 51 3b 3a 0b 0d be
       0.1413045 0.09400995 0.003191855 -0.13773814
000030 cc fd 16 3e 53 0c 1a 3d 4a 26 39 be 6e 4e 08 3e
       0.14745253 0.03760941 -0.18081012 0.13311169
000040 20 98 86 3c b3 5c ce bd 5d 1f 83 bd 99 75 c2 3c
       0.01642996 -0.10076275 -0.064024664 0.023737716
000050 5d dc bd bc b8 f3 5d bd eb e8 3a ba 73 53 00 bd
       -0.023176366 -0.054187506 -0.00071300444 -0.031329583
000060 8e 2e 96 3c bf 5a 9d bc 72 ed 34 3c e6 3c a7 3c
       0.018332746 -0.01920831 0.0110429395 0.02041478
000070 c5 b7 b2 bd 61 f6 a2 3b 70 2a 8d 3d 57 cd 06 3d
       -0.087264575 0.0049732183 0.0689286 0.03291067
000080 5a de 07 be d3 c8 07 3e 85 52 9a 3d 9c 2a 2e bd
       -0.13268414 0.13260202 0.075352706 -0.042521104
000090 13 70 10 3b 3d a8 53 bd 0a 38 41 bd 7a a1 85 bc
       0.0022039458 -0.051674116 -0.047172584 -0.01631235
0000a0 1b d2 0c 3c c2 14 88 bd 40 37 2f 3d c5 1e 83 3d
       0.008595015 -0.06644584 0.0427773 0.06402353
0000b0 e6 78 49 3c 07 69 5a bc 5b 0e 2b 3d 66 c5 28 3e
       0.012296891 -0.0133307045 0.041761737 0.16481552
0000c0 35 8b 0f bd 83 94 14 bd cf 00 88 3d 11 df 3a bd
       -0.035044868 -0.036274444 0.06640779 -0.04562289
0000d0 eb 2f 1f bb 5c e6 80 bc 25 5b 8d 3c 24 03 90 bb
       -0.0024290036 -0.015734844 0.017255375 -0.0043949056
0000e0 f2 2c 87 bd 12 f1 1b 3b ba 2e c5 bc 1a 9a 8f bc
       -0.066003695 0.0023794812 -0.024070133 -0.017529536
0000f0 ef a0 f6 3a a5 98 65 bd 50 d4 a1 bc 16 c6 02 3d
       0.0018816272 -0.056053776 -0.019754559 0.03192719
000100 69 9b e6 3c dd 74 a5 bd 79 5f 6b bd 08 95 c6 bd
       0.028150277 -0.080789305 -0.057464097 -0.09696394
000110 57 f5 75 3c 07 b1 71 bd b7 eb d8 bd dd 8c 8e bc
       0.015012107 -0.059006717 -0.10591834 -0.017401153
000120 6c 94 d0 3c 0d 1f 14 3a 69 44 d6 bb 0d 9f b0 3c
       0.025461398 0.0005650379 -0.006538917 0.021560216
000130 cf 75 f5 bc 81 36 73 bd 40 91 22 bd a9 2c 0d bd
       -0.029963402 -0.05937815 -0.039689302 -0.03446642
000140 c7 92 9b bc 0a aa 66 bd 1d 91 35 bd 2e 92 9c bc
       -0.018990887 -0.056314506 -0.044327844 -0.019112673
000150 6a 41 4d 3d 0e cc a8 3c 33 a5 0f bd 22 37 5f 3c
       0.05011121 0.020605113 -0.035069656 0.0136239845
000160 da b7 24 bd 55 11 80 bd 75 3e c3 3d 1d ff f0 bd
       -0.040214397 -0.06253306 0.09533397 -0.11767409
000170 ef f5 18 be 20 e1 02 3d 8a 28 d5 bc d8 13 4b be
       -0.14937566 0.031952977 -0.026020307 -0.19831789
000180 da 16 a8 3b 2a d6 24 3d ab 8f 6c bd 86 49 a7 3d
       0.0051296772 0.040243305 -0.0577542 0.0816832
000190 28 8b 39 3d 18 ee 87 bd e0 15 85 3c 8a b6 0f 3d
       0.045298725 -0.0663721 0.016245782 0.035086192
0001a0 17 27 7f 3d 37 43 b4 ba 0f 4a 93 3c 67 c9 6a 3d
       0.06229314 -0.0013752942 0.01797965 0.05732098
0001b0 aa 59 44 3d ea c5 d6 3c 10 13 56 3b be 25 77 bd
       0.047937073 0.02621742 0.003266517 -0.060338728
0001c0 eb 4e 0c bd e1 62 cf bd 9e 1f ca bd 4e b4 ba 3c
       -0.03425495 -0.101262815 -0.09869312 0.022791054
0001d0 a2 26 32 3c 4a bc 8b bd 54 7e ee bc 74 5b a3 bc
       0.010873469 -0.06823023 -0.029112972 -0.01994107
0001e0 80 fb 6b bc e8 ca 0a bd f7 4b 60 3d c8 15 f9 bc
       -0.014403224 -0.033884913 0.054759946 -0.030405894
0001f0 f7 39 93 bc ed 1f 62 bd 66 c8 4e 3c c8 d7 03 3d
       -0.017971976 -0.055206228 0.012621021 0.032188207
000200 df de 74 bd d1 6d 38 3d 46 f3 84 3d 1e 52 05 bd
       -0.05978286 0.045026604 0.06491713 -0.032549016
000210 e6 09 90 bd 1b d9 2d bc e5 b8 37 bd 7c c1 e3 3d
       -0.07033138 -0.010610844 -0.044854064 0.111208886
000220 7c c9 ea bd 1b e5 38 be 67 0f dc 3d 7d 92 a8 3d
       -0.11464211 -0.18056147 0.10745125 0.082310654
000230 e6 00 2b be 02 8e 27 3e ab 58 dc 3d 9e b3 a9 bd
       -0.16699561 0.16362765 0.107590996 -0.082862124
000240 1d cc 9e bc ad 6a 5b bd 11 ab 4d 3c 88 10 b4 bc
       -0.019384438 -0.05356853 0.012552992 -0.021980539
000250 2e 7a 0f 3a d8 7c 2d bd 34 79 54 3d 32 dc 42 bd
       0.0005473223 -0.04235539 0.0518734 -0.047573276
000260 60 12 fa bb 23 66 de bc ff 1a 66 3d 19 91 b5 bc
       -0.007631585 -0.027148312 0.05617809 -0.022163915
000270 f1 16 aa 3c a3 c7 33 bd 29 b5 ae 3d fb d2 7b bd
       0.020762892 -0.04389156 0.08530647 -0.061480504
000280 86 a3 9b bd 92 df db 3c 42 16 d4 bb 8d 2a 42 bd
       -0.07599549 0.026840005 -0.00647238 -0.04740386
000290 99 0d 22 bd 76 be 50 3d ae 9a 2a 3d 20 3d 99 bd
       -0.03956375 0.050962888 0.04165142 -0.07482362
0002a0 bd a8 21 3d 0b 53 8f 3d d3 f7 2d 3d 51 82 6c bd
       0.039467562 0.06998261 0.04247267 -0.057741467
0002b0 f7 af aa bc cf a9 db 3c e9 b7 6e bd 2d dc e3 bb
       -0.02083586 0.02681437 -0.05828086 -0.0069537372
0002c0 30 7d 73 bc e7 00 2d bd b0 46 ad bd 10 34 31 bd
       -0.01486139 -0.04223719 -0.08460748 -0.04326254
0002d0 2d bb 23 bc 18 a3 32 3d e7 cd 68 3d a1 cd 10 3d
       -0.009993357 0.04361257 0.05683699 0.035352353
0002e0 00 ec 07 bd 34 fc 05 3d 4d 87 91 bd 6b f0 85 bc
       -0.03318405 0.032711223 -0.07105885 -0.016349992
0002f0 c7 5f 42 3d f7 9b 9b 3d b1 d6 6d bd 23 78 f6 bd
       0.04745462 0.07598107 -0.058066074 -0.12034633
000300 69 67 40 3e a6 a0 86 3d 06 ea 5e bd 12 a6 df 3d
       0.18789448 0.0657361 -0.0544224 0.10920347
000310 af ba ec 3d f2 51 bf b9 c5 99 ae bc a6 ed 14 bd
       0.115590446 -0.00036491413 -0.021313557 -0.03635945
000320 f8 7b a5 bd d9 06 be bd 5a 6a ac bd ae bf ac bd
       -0.08080286 -0.0927865 -0.084187225 -0.084349975
000330 b3 50 68 bc 49 47 83 3d d8 a0 cc 3c bf 8a 7d bd
       -0.014179396 0.06410081 0.02497904 -0.061899897
000340 65 7b 1d 3c 96 4f 8e 3d e3 de dc 3c 79 1e 24 bd
       0.009611939 0.069487736 0.02696175 -0.040068123
000350 3f c1 0d bc 76 62 48 bd fd 16 36 bd 4a c7 41 3d
       -0.0086520305 -0.048922025 -0.044455517 0.047309197
000360 ba 21 b2 bc 4f e6 28 be dd 67 22 be b0 83 00 3d
       -0.021744598 -0.16494106 -0.15859933 0.031375587
000370 a6 79 b4 bd ab 1d 8e bd 8e 6e d5 3d 64 ed 66 bd
       -0.08812265 -0.069392525 0.10421477 -0.056378737
000380 3c 41 82 bd 7c bb ca ba 01 1b d1 3d a2 6e e8 bb
       -0.06360099 -0.0015467252 0.10210229 -0.0070932666
000390 6c 7f 82 ba 35 1e c1 3c a9 ef f9 3d e8 64 c0 bd
       -0.0009956188 0.023573974 0.12203915 -0.09394246
0003a0 4d a3 a4 3c c4 60 bf 3d 3a f0 dc bc 29 85 4d bb
       0.0200974 0.093446285 -0.026970018 -0.0031359887
0003b0 df b2 99 bd 0d 9a b1 bc e4 64 0d 3c 87 89 af 3c
       -0.0750482 -0.021679902 0.008630011 0.021427883
0003c0 d8 72 8f 3b b9 08 67 3d a9 84 91 3d 23 e4 ab bb
       0.004377704 0.056404803 0.07105381 -0.005245702
0003d0 16 54 fe 3c c4 e1 f1 bb 0a 66 b6 3c fb 2d 4b bc
       0.031045955 -0.0073816497 0.022265453 -0.012401099
0003e0 eb 87 77 bc 98 96 0a 3c 51 3c 63 3d 83 8c 72 3d
       -0.015108089 0.008458756 0.055477444 0.059216034
0003f0 05 f2 0e 3c a1 57 3a bd 0b 63 a6 bd c8 19 08 3d
       0.008724694 -0.045493726 -0.0812436 0.033227712

cnn2.bias f4 [64]
000000 78 5f 72 3c 91 df 86 bd 14 84 3e bd 70 22 43 3d
       0.014793269 -0.06585611 -0.04651268 0.047640264
000010 80 7b 5d 3c 3d 3b e4 bc 80 37 28 3c 43 90 8c bd
       0.013518214 -0.027860278 0.0102671385 -0.06863453
000020 fd 16 25 bd c4 7d 31 3c 50 3a 57 bd 76 e6 a4 3c
       -0.040305126 0.0108332075 -0.052545846 0.020129424
000030 48 1b 30 3d cd da a2 bc aa c1 fd bc 32 13 b5 3c
       0.042994767 -0.019879723 -0.030976135 0.02210388
000040 9b be e5 3c b2 f2 8c bd 28 44 c4 3c be 30 66 bd
       0.02804499 -0.06882228 0.02395828 -0.056198828
000050 ff 49 67 bd b1 eb 9d bd 06 40 2d 3c 84 f7 b2 bc
       -0.056467053 -0.0771097 0.010574346 -0.02184654
000060 19 f1 33 3d 25 96 14 bc 2c c0 05 bd 42 90 4c 3d
       0.0439311 -0.009069 -0.032653973 0.049942262
000070 eb 3c 73 3c cd 68 87 bc 9a 45 e8 3c fd 53 e8 3c
       0.014846067 -0.016529465 0.028353501 0.028360361
000080 0d 25 1f bd f5 8e 3f bd 9b b7 da bc dc b1 b8 bb
       -0.038853694 -0.046767194 -0.026698878 -0.005636437
000090 e5 3f 55 3d 30 db 71 bd 70 c0 3c 3d 1e fb 83 bd
       0.052062888 -0.059046924 0.04608196 -0.06444381
0000a0 7f 04 8f bc b0 c1 d4 3c 1f cc 45 3d 2b 11 1a 3d
       -0.017458199 0.025971264 0.04829037 0.03761403
0000b0 28 17 59 bb 84 ae 82 3d a5 6d e3 3c ee 24 4e bc
       -0.0033125374 0.063809425 0.027762244 -0.012582047
0000c0 10 95 af bc 1d 95 f8 3c ac 13 3a 3d 7b 11 e8 3c
       -0.021433383 0.03034454 0.045428917 0.028328648
0000d0 86 02 bf bc 99 09 26 3d 78 c7 0b bd 7a 60 f0 3c
       -0.023316633 0.040536497 -0.034125775 0.029342879
0000e0 ee b2 fb 3a f3 75 10 bd b6 af 15 bd 63 d1 52 3d
       0.0019203105 -0.035268735 -0.036544524 0.051469218
0000f0 c6 05 87 3d a6 70 df 3c 22 aa 71 bd f4 c3 d8 3c
       0.06592898 0.027275395 -0.059000142 0.026460625

fc.weight f4 [10, 9216]
000000 48 4b 77 bc 2b e9 66 bc e2 a6 4b bc 48 d7 53 bc
       -0.015093632 -0.0140936775 -0.012429925 -0.012929745
000010 32 0f de 3b 56 e7 9a bc b9 77 bb 3b ba 3e 1a bc
       0.0067767138 -0.018909138 0.005721059 -0.009414369
000020 81 ff cc bb 3d fd f7 bb 7c 7d 4a bc 2d 8c 27 bc
       -0.0062560444 -0.00756803 -0.012359019 -0.010226292
000030 3f dc 9c bc 25 03 8c bc 0d 79 a7 bc fe 96 cd bc
       -0.01914799 -0.017091343 -0.020443464 -0.025096413
000040 36 e6 21 bc 30 11 21 ba 1b e3 ab 3c d0 e2 4c 3c
       -0.009881547 -0.0006144224 0.020982316 0.012505248
000050 03 39 c5 b9 0e 1c 67 3c b5 c6 e9 bb 88 71 06 bc
       -0.00037617245 0.01410581 -0.0071342834 -0.008205779
000060 0b 63 52 bb d1 1d 77 bc 33 26 a0 3b 7b 9e ac bc
       -0.0032102491 -0.015082792 0.004887366 -0.021071663
000070 fc 9c cc ba 6f 38 78 bc 56 1f 52 bb d1 8f 36 3c
       -0.001561075 -0.015150174 -0.0032062135 0.011142687
000080 b9 2e ff 3c 81 3b 32 bc 5b a8 f9 3c 42 7a 0e bb
       0.031150209 -0.010878445 0.030475786 -0.0021740352
000090 70 06 9c bc ee ba 09 bc f1 11 7e 3c 2b bb 46 bc
       -0.019046038 -0.008406384 0.015507207 -0.012129585
0000a0 1e 06 41 ba 55 c0 2f 3a f3 11 6e 3c da d8 71 3c
       -0.0007363277 0.000670438 0.014530647 0.014761174
0000b0 4d 90 37 3d b2 85 17 3c 44 32 6d 3c fd 04 a5 3c
       0.04481535 0.009248184 0.014477316 0.02014398
0000c0 12 05 a5 bc 25 77 df bb 68 d2 bb 36 6c 34 96 bc
       -0.02014402 -0.006819623 5.597529e-06 -0.018335544
0000d0 4b 20 b9 bc 1b 0d 19 bd 9c 35 89 bd 06 b5 5e 3b
       -0.022598406 -0.037366014 -0.06699678 0.003398241
0000e0 76 d0 04 3d a2 14 9e 3c 3d 20 89 3c 97 80 85 3c
       0.032425366 0.019296948 0.016739005 0.016296668
0000f0 91 d7 cf bc ba 27 59 bc 12 74 0d 3c 5a f5 c7 bc
       -0.025371345 -0.0132541 0.00863363 -0.024408985
000100 2a ca 9d bb 55 d8 8a 3a 4b 0e 75 bd fe 62 24 bd
       -0.0048153596 0.0010593036 -0.059828084 -0.04013347
000110 3e 86 b4 bb 18 a5 85 3c c4 b2 bd 3b 43 04 4d 3a
       -0.005509167 0.016314074 0.005789133 0.00078207644
000120 97 8c c7 bc da f3 73 ba d9 8d 60 3c b2 02 be 3b
       -0.02435903 -0.0009306051 0.013705694 0.005798661
000130 a8 8f 78 bc 3f c5 b3 bc e7 66 41 bd 5a 63 3b bd
       -0.015170969 -0.02194464 -0.047217276 -0.045749046
000140 3e d4 eb bb ee 95 1c bc 23 a1 0e 3d 05 dc 2e 3c
       -0.007196932 -0.00955723 0.03482164 0.010672574
000150 b3 04 a6 bc 5a dd 27 bc 09 27 a7 3b 5f e3 ae 3c
       -0.020265913 -0.010245645 0.005101089 0.021348653
000160 4b b2 0c 3d 5c 45 00 bd 76 87 d2 bc 7e 75 d9 3a
       0.03434972 -0.031316146 -0.025699358 0.0016590802
000170 ab ec 1d bc 7c 53 88 bc e8 08 f1 3b 17 78 bb 3c
       -0.009638946 -0.016641371 0.007355798 0.022884412
000180 4f fb 46 bc b7 9b 01 bd f2 1c a6 bc 8a 86 98 ba
       -0.012144878 -0.031642642 -0.020277474 -0.0011636775
000190 f7 10 1a 3c 0e 32 04 3b 90 9a e8 bb 9a 68 b5 bc
       0.009403459 0.0020171436 -0.0070985034 -0.022144604
0001a0 d0 33 7a 3b 02 27 56 bc 05 2a a4 3b ff c9 51 bb
       0.0038177855 -0.013070824 0.005009892 -0.0032011268
0001b0 d3 53 9b bc 36 1a dc ba da 2c d8 bc 60 e4 0e 3c
       -0.018960869 -0.001679248 -0.026388574 0.008721441
0001c0 7c e5 92 3b fb 5e f1 bc a0 f7 07 bd 00 c6 12 bd
       0.004482923 -0.029464236 -0.033195138 -0.03583336
0001d0 0b 14 4b bd cc a9 bd bc 1f 1e 02 bc c5 c4 1f 3b
       -0.04957966 -0.023152255 -0.007941752 0.0024378758
0001e0 7b a0 2c bc 9f ea 8e bc 2b 12 ba bc 08 98 4c 3c
       -0.010536308 -0.01744586 -0.022713741 0.012487419
0001f0 10 97 2b 3d 5c 70 21 bc 90 88 cd bc c8 49 4b bd
       0.04189211 -0.009853449 -0.025089532 -0.04963091
000200 c7 11 d1 bc d7 b3 d6 bc c3 10 98 bc dc 8f 43 3a
       -0.025521172 -0.026208801 -0.01856268 0.00074600964
000210 c0 e9 6c 3a 85 74 87 bc f8 6a 85 bc 9c 39 88 bc
       0.0009037517 -0.016535053 -0.016286358 -0.016629033
000220 bd 78 a6 3b 6f 8b 0f bb de 40 cb bb 26 08 35 bc
       0.005080311 -0.0021903177 -0.006202801 -0.011049306
000230 5c 62 a4 bc 74 d5 aa bb 9f 51 c2 bc 09 f7 58 bc
       -0.020066433 -0.005213434 -0.02372056 -0.0132424915
000240 f3 3d 24 bc c1 10 8c ba 37 51 6f bc 4b fb 08 ba
       -0.0100245355 -0.0010686145 -0.0146067655 -0.0005225434
000250 a6 ab 1a bc 61 e2 2a bc 65 48 cf bc c7 a2 8c bc
       -0.009440338 -0.0104299495 -0.025303075 -0.017167462
000260 e3 f7 53 bc 30 12 5a bc 9e f8 33 bb 54 2d 50 3b
       -0.012937519 -0.01331 -0.002746142 0.00317653
000270 6b 05 57 bc f0 7c b1 bb 15 9e 85 bb 60 56 37 bc
       -0.01312385 -0.005416505 -0.0040776827 -0.011190027
000280 94 78 93 bc d8 ca ef bb c2 94 6b 3c 4e 24 0b 3c
       -0.018001832 -0.007317882 0.014378728 0.008492542
000290 b3 43 d5 3b de 79 10 3c 46 13 48 bc 4f 67 92 bc
       0.0065083145 0.008818118 -0.012211626 -0.017871527
0002a0 df f5 3a bb ab 99 56 bc 09 4b 86 bc 90 cd 5f bc
       -0.0028527898 -0.013098161 -0.016393201 -0.01365985
0002b0 c4 77 86 bc bc 7b a4 bc 6a 6d c5 3a 34 3f a2 39
       -0.01641453 -0.020078532 0.0015062515 0.00030946138
0002c0 a8 95 8f 3b 67 20 fb bb 92 94 a5 3a 5d 1e 1a 3b
       0.004381854 -0.007663775 0.0012632778 0.0023516633
0002d0 e3 71 48 bc 03 e8 98 bc ed 39 67 3b 68 a4 10 3c
       -0.012234184 -0.01866532 0.003528233 0.00882826
0002e0 f3 42 6e bc 31 2e d5 ba b0 9e 22 3c 03 4d f7 ba
       -0.014542329 -0.0016264376 0.009925529 -0.0018867556
0002f0 cb 54 88 39 18 10 1c 3c 15 47 9e 3c e4 a1 0f 3b
       0.00026003117 0.009525321 0.019321004 0.0021916563
000300 c1 8e c8 39 f5 23 c2 bb 86 b1 2c 3c d2 97 4e ba
       0.00038253333 -0.0059246966 0.010540372 -0.00078808994
000310 ff 56 05 3b 10 e9 e8 3b f7 3f 90 bb 13 de 04 bc
       0.0020346043 0.0071078613 -0.0044021565 -0.008109587
000320 ed dd b4 3b 05 29 19 bc 36 1b b3 ba b4 c3 86 3b
       0.0055196197 -0.009348159 -0.0013664726 0.004112685
000330 85 00 a6 bb 15 e9 ab 3b 49 2a 82 3b a3 cd e4 3b
       -0.00506598 0.0052462914 0.003972326 0.0069825216
000340 15 c7 a3 3c 27 83 1a bc 4b 0b c8 bc 89 4e c6 bc
       0.01999239 -0.009430683 -0.024419447 -0.02420737
000350 96 41 8b bc 20 31 dd bb b8 cf 88 3c 2b 1a 83 3a
       -0.016999047 -0.006750241 0.01670061 0.0010002305
000360 7a c5 17 bc 68 87 a5 3b 2f 68 b9 3c 61 a5 e1 3c
       -0.009263391 0.005051542 0.022632686 0.02754468
000370 ac d7 fa 3b c5 80 bf bb 9e 05 1a bd 13 fe f2 bc
       0.0076551046 -0.005844208 -0.037603013 -0.029662168
000380 33 dc ae bc c0 61 ea bb 99 fa 22 3c be da 99 3c
       -0.021345234 -0.007152766 0.009947442 0.018781062
000390 3e d7 10 bc da dd 0d 3c 5e 48 48 3c 14 38 d1 3c
       -0.00884038 0.008658851 0.012224285 0.025539435
0003a0 3f d8 1e 3b 03 1b 30 bd 75 2a 09 bd b0 94 9e bb
       0.002423778 -0.04299451 -0.033487756 -0.0048395023
0003b0 88 9e 33 bc f3 e2 8e 3a 0f dd 4c 3c f2 fb e6 3c
       -0.01096309 0.0010901376 0.012503876 0.028196309
0003c0 ad 01 16 bc 7c be cc bb 50 c3 42 3c 73 b9 88 3c
       -0.009155673 -0.0062482934 0.011887386 0.016689992
0003d0 09 7c d8 3a 3a b9 bb bb ad 7d 87 bc a8 30 e9 bb
       0.0016516458 -0.005728868 -0.01653942 -0.007116396
0003e0 3a 6c f8 3b 36 40 8f 3c 34 a3 ca 3c 86 94 13 3c
       0.007581261 0.017486673 0.024736024 0.009007579
0003f0 09 3a 12 3a 31 c3 b3 ba 8c 98 ce bb a0 84 9b 3b
       0.0005578106 -0.0013714788 -0.006304806 0.0047460347

fc.bias f4 [10]
000000 9e 25 86 bc ff ed 47 3c 45 77 d0 3b c4 c8 84 bc
       -0.01637536 0.012202739 0.0063618743 -0.016209014
000010 cb 9c 61 3c 25 4c f0 bb 11 b5 06 3c a9 9f 73 3c
       0.0137702925 -0.007333296 0.0082218805 0.014869609
000020 da b3 91 bb 61 9e 80 ba
       -0.004446489 -0.0009812826
