MLOps_DTU_project/models/trained_model_Session1.pth (torch, 446814 bytes, 6 tensors)

cnn1.weight f4 [32, 1, 3, 3]
000000 32 bd 7e 3e 48 95 90 3d 17 10 13 3e 6c 6e 0f 3d
       0.2487686 0.07059723 0.14361607 0.035017416
000010 ac b3 16 bd 16 d6 ac bc 81 14 b0 be 1e ed 37 be
       -0.036792442 -0.021098178 -0.34390643 -0.17961547
000020 10 33 73 be 71 a3 1b bc 0e 88 a9 3c f7 d6 cb bd
       -0.23749948 -0.009499417 0.020694759 -0.09953111
000030 2e 41 b7 3e 6b 2d 35 3e e6 3e 12 3e c2 8d 1c 3e
       0.35791916 0.17693107 0.14281806 0.15288451
000040 da 85 1f 3e 08 d1 d5 bc 36 8d 8c 3e 0b 10 94 3e
       0.15578404 -0.02610065 0.27451485 0.2891849
000050 17 1e 6c be 6f e1 be 3e da fb de 3d cb 34 e3 bd
       -0.23058353 0.37281367 0.108878806 -0.11094054
000060 65 28 a6 3e ff 23 75 be fe bf 38 be ee 04 65 be
       0.32452694 -0.23939513 -0.18041989 -0.22365162
000070 47 9e 23 be 34 f7 8d be fc 80 b2 3c 77 c9 16 bd
       -0.15978347 -0.27727664 0.02179002 -0.036813226
000080 49 45 c3 bc 42 26 71 3e 88 ec 89 3e 7f 1a 4d bd
       -0.023836749 0.2354975 0.26938272 -0.050074097
000090 8e 27 87 3e 49 0e 28 bc 99 52 86 be 8c 82 63 bd
       0.26397365 -0.010257312 -0.26234892 -0.05554442
0000a0 d6 8c c2 3c c8 1c 15 be 64 3b fb bd 14 55 74 be
       0.023748796 -0.1456176 -0.12267187 -0.2386058
0000b0 6b 5b 29 be 35 6c c0 be d3 b3 4e be 9a 05 84 be
       -0.1653878 -0.37582555 -0.20185785 -0.25785524
0000c0 fe bd 08 be c6 e8 f2 bd 84 42 51 3e 12 3a 55 3d
       -0.13353726 -0.11860804 0.2043553 0.052057333
0000d0 72 c9 b6 3e d0 12 ba 3d ee ab cb 3e d5 6a 9f 3e
       0.35700566 0.090856194 0.3977961 0.31136194
0000e0 69 57 6a be 86 7b d0 bd 60 0b 9d be 71 79 aa 3d
       -0.22884907 -0.1017981 -0.3067274 0.08323944
0000f0 83 0f 8a 3e 77 1d 15 3e 1b d9 be bd 76 d3 29 3e
       0.2696496 0.14562021 -0.09318753 0.16584572
000100 e8 eb a8 3e e7 e1 20 be c8 10 ec 3d 66 75 97 3e
       0.32992482 -0.15711175 0.11526638 0.29581755
000110 62 f1 b8 3d 7f 07 0d be fe bb 4f 3d b3 c7 46 3b
       0.09030415 -0.13772391 0.050716393 0.0030331432
000120 0a 5b 9e 3d b7 e0 8b be d0 ab 97 be 79 40 ab be
       0.07732208 -0.2731988 -0.2962327 -0.33447626
000130 ea eb 30 be 8a 98 31 3e f5 28 9f 3e f8 b8 e6 bd
       -0.17277494 0.17343345 0.31085935 -0.11265749
000140 15 4d 7a be c0 ad 5c be 8a eb 81 be 54 97 97 3c
       -0.24443467 -0.21550655 -0.25375015 0.018504776
000150 32 65 5b be 0f 4c be 3d f5 64 a9 3e ed 9b 28 be
       -0.21425322 0.09291851 0.33084837 -0.16465731
000160 30 e2 b7 3d 79 ae 3a 3e f7 4f 19 be 33 63 99 be
       0.08978689 0.18230619 -0.1497191 -0.29958495
000170 ca dd 33 be 05 7d 2a be 4b 10 3e 3e 6e 0d e0 bd
       -0.17565075 -0.16649254 0.18560903 -0.109400615
000180 86 23 d1 bc 5d 92 1b bd fa 63 1b be cf 58 dc bd
       -0.025529634 -0.03798138 -0.15174857 -0.107591264
000190 78 0e a2 3e af 42 a4 be 3c 0c 8f 3e 63 76 b2 3d
       0.31651664 -0.32082126 0.27939022 0.08713987
0001a0 38 5d c1 3d 09 20 ef bb f6 71 44 3e 21 e3 4d 3e
       0.09441608 -0.00729752 0.19184098 0.20106174
0001b0 a9 cd f7 3d b1 82 a9 3e b6 e1 91 bd eb 2b 5b bd
       0.120997734 0.33107522 -0.07123129 -0.05350868
0001c0 bd 7e 8e be cb 8c 9d be da 31 76 be a6 43 8c be
       -0.2783107 -0.3077148 -0.24042454 -0.27395362
0001d0 3c c7 1d bc bb 66 cd 3e 46 6d 4c be 1b 96 5c bc
       -0.009630021 0.4011744 -0.1996356 -0.013463522
0001e0 b5 4d 2b be d1 08 b1 3e a8 1d 9b 3e 2a 23 16 be
       -0.16728862 0.3457704 0.30296063 -0.14661852
0001f0 e0 6b 4f bd 7f d6 9e 3e 59 f7 82 be 09 60 c3 3e
       -0.050639987 0.31023023 -0.25579336 0.38159207
000200 ea 70 4f 3e 7f a5 bf 3d cc 06 0a be 57 9a 4c 3e
       0.20257917 0.09357738 -0.13479155 0.19980751
000210 3e c8 39 be 9d e8 f4 3d c8 bf bf 3e ca 61 a2 be
       -0.18142793 0.1195843 0.37451005 -0.31715232
000220 14 20 8e bd bd 54 cf 3d 95 ef 1a be c9 31 12 39
       -0.06939712 0.101235844 -0.15130456 0.00013942191
000230 73 90 91 bc c5 51 1d 3e 83 dc 5b be 57 87 16 3e
       -0.017769074 0.15363224 -0.21470837 0.14700066
000240 cf 6c 42 bd 21 60 72 3e f9 79 45 3d f8 f7 9d 3c
       -0.04746705 0.23669483 0.048212025 0.01928328
000250 09 94 f8 bb a7 e7 80 3e 88 c7 8c 3e 88 30 1b 3e
       -0.0075860065 0.25176737 0.2749598 0.15155232
000260 cf 6b 85 be 20 55 02 3d aa f6 bf bd 9d 8c 10 3d
       -0.26058814 0.031819463 -0.09373219 0.03529035
000270 73 73 dd 3e ea 66 3c be 18 86 af be c1 3e e8 3e
       0.43252143 -0.18398634 -0.34281993 0.45360377
000280 b1 fc 13 3e 8c c2 3e bc a4 3d e7 bb 72 ff 2c be
       0.14451863 -0.011643063 -0.0070569087 -0.1689432
000290 13 22 8b 3e 71 07 09 3e 4c 53 b3 3e f5 26 b4 3e
       0.27174434 0.13381745 0.35024488 0.35185972
0002a0 2c 6b 7e 3e 4d c8 0a 3d b0 8a b2 3e df cf 92 be
       0.2484557 0.033882428 0.34871435 -0.28674218
0002b0 74 8d 92 3d 23 94 79 bd 7a 47 07 be 6b 2d 69 3c
       0.07155886 -0.06093229 -0.1321086 0.01423202
0002c0 25 a6 c0 be b4 bf 91 3d d5 20 75 bd 40 2c 9a be
       -0.37626758 0.071166426 -0.059845764 -0.30111885
0002d0 49 02 ba 3d 38 4e 4a 3e ff 41 0d 3e 41 c3 35 bd
       0.09082467 0.197564 0.13794707 -0.04437566
0002e0 76 42 8f bd d4 82 c4 3e 56 af 70 3e b0 7f 24 be
       -0.06995098 0.38381064 0.23504385 -0.16064334
0002f0 3f 2d 81 bc a1 0a d2 be be cf 11 bd 01 49 28 be
       -0.015768645 -0.41023734 -0.03559851 -0.16434099
000300 9d 31 b5 be d0 ae d6 3e 41 a8 9d 3e 25 cd 4f be
       -0.35389414 0.41930246 0.3079243 -0.202931
000310 7e 72 c4 3e 7b e9 84 bd e3 42 83 be c5 43 f0 3d
       0.383686 -0.06489845 -0.25636968 0.11731676
000320 22 27 4c 3e 27 8e 1a be 0a 83 19 be 8a 5c 3b be
       0.19936803 -0.1509329 -0.14991394 -0.1829702
000330 3c b7 11 bd a4 3e a3 be 07 88 60 be 00 16 e6 bd
       -0.035575137 -0.31883729 -0.2192689 -0.11234665
000340 86 5e b8 be ac 7c 07 be 69 d5 ad be 6a 5d 52 3e
       -0.36009616 -0.13231152 -0.33951882 0.20543447
000350 33 2c 8e be 00 0e 91 be 3d 21 93 3e c2 b9 88 be
       -0.27768096 -0.28330994 0.28736296 -0.26704222
000360 ad f6 a7 3e be dd 6f 3b 64 f2 c6 3d 67 a1 84 be
       0.32805386 0.0036600675 0.09714201 -0.2590439
000370 10 ce 47 be 42 1d b1 3e d4 b7 d7 be b1 2b c0 3d
       -0.195122 0.34592634 -0.42132437 0.093833335
000380 01 24 e2 3e 54 30 b7 be 02 1f 50 bc ec 09 fd 3c
       0.44168094 -0.3577906 -0.012702705 0.03088852
000390 15 c7 1f be ac fd 0f be 4d 83 69 3c 75 eb 1e be
       -0.15603288 -0.14061612 0.014252496 -0.15519507
0003a0 bb 49 90 be 25 96 76 3e 74 80 f9 3d 40 16 ae be
       -0.28181252 0.24080713 0.121827036 -0.3400135
0003b0 2e c9 d8 be 53 30 3a bd 2c c6 86 3e 8b 55 c3 bd
       -0.42340988 -0.04545624 0.26323068 -0.095378004
0003c0 04 62 99 3e 0e 06 52 be e3 ae 8c 3e 65 07 34 be
       0.29957592 -0.20510122 0.27477178 -0.17580946
0003d0 c4 4a 8e 3e c9 34 69 be d7 15 1a be c2 5f a6 bd
       0.27791417 -0.22774042 -0.15047394 -0.08123733
0003e0 6a d1 55 3e 85 9c a1 3d 92 1a 46 3e cd 68 f7 3d
       0.20880666 0.07891182 0.19346073 0.12080536
0003f0 0a 02 d8 3e 96 3b e4 bd 55 15 90 3d ca 9f 5e 3e
       0.42189056 -0.111441776 0.07035319 0.21740642

cnn1.bias f4 [32]
000000 09 0d 53 3e f6 f1 12 3d c8 12 a4 bd 93 a9 68 3e
       0.20610441 0.035875283 -0.08011395 0.22720937
000010 80 5a 3a 3d 7a de b2 3e 7a 1e 8c 3d 23 f6 bb 3c
       0.045496464 0.3493536 0.068417504 0.022944516
000020 d6 94 af 3e 33 0a 24 3d a7 d6 36 bd 35 40 5b be
       0.3429324 0.04004879 -0.044638302 -0.21411212
000030 66 9f 17 3e ca 46 26 be fb 78 84 be c5 55 4b 3e
       0.148069 -0.16237941 -0.2587355 0.19856937
000040 0a dd 4b be 72 a0 f4 3c 44 61 15 bb fb f7 14 3e
       -0.19908538 0.029861663 -0.002279357 0.14547722
000050 c7 a9 2c 3e 04 45 bc 3b 2f e6 87 be 6d 16 15 be
       0.1686164 0.005745532 -0.26542804 -0.14559336
000060 3c 56 8e 3e 2c 33 9c 3e a1 85 80 3e 9a 8d 18 3e
       0.27800167 0.3050779 0.2510195 0.14897767
000070 d3 2d 92 3e 9b 07 17 3d f3 14 3b 3e 73 52 4a bd
       0.28550586 0.036872488 0.1826971 -0.049395036

cnn2.weight f4 [64, 32, 3, 3]
000000 a8 91 50 bd 0f 36 af 3c 19 38 57 3c 44 3f a5 3b
       -0.05092016 0.021388082 0.013135933 0.0050429422
000010 22 9e b3 3d 36 06 94 bc cd c6 34 3d 2c 41 b3 bb
       0.08770396 -0.018069368 0.044134904 -0.0054704156
000020 66 89 02 3b b0 84 d8 bc a0 a8 01 3d 2a a3 26 3a
       0.0019918322 -0.026430458 0.031654954 0.0006356711
000030 be e4 01 bd bc 47 19 3d d5 73 7e 3c 93 81 69 bd
       -0.031712286 0.037421927 0.015530546 -0.057008337
000040 09 ed 19 bd b1 c1 79 bd 9c e0 01 3b 8f 88 ac 3d
       -0.03757957 -0.060975734 0.0019817716 0.08424484
000050 d0 a0 02 bc cb b4 a9 bc 1d cd 95 3d 43 c6 bc 3c
       -0.007972911 -0.020716092 0.07314513 0.023043757
000060 fe a3 5e 3c f9 99 2d bd a4 41 b8 bd ea 4c e7 bc
       0.0135889035 -0.042383168 -0.08996895 -0.028234918
000070 e8 ed 99 bd f3 94 48 bb 2c 65 80 bb 02 0d ab bd
       -0.0751608 -0.0030606359 -0.0039183106 -0.083520904
000080 f4 69 a5 bd f5 1e dc bb 76 15 78 bd e3 35 49 bd
       -0.080768496 -0.0067175576 -0.06056734 -0.049123656
000090 bc 47 06 bd 54 c5 3a bd 41 d3 0a bc e8 53 6d 3c
       -0.032783255 -0.045598343 -0.008473218 0.014485337
0000a0 4f 9f 7c 3d ad 84 0d 3d 04 3e 66 3d a2 3e eb 3d
       0.061675366 0.034550358 0.056211486 0.11486556
0000b0 02 05 e1 bb b3 c0 33 bd b9 57 9b 3c 19 b1 cf 3c
       -0.006867052 -0.043884944 0.018962728 0.025353001
0000c0 49 21 9c 3c e8 08 9a bd cb a5 93 bc 4a 64 52 ba
       0.01905884 -0.0752123 -0.018023392 -0.00080258085
0000d0 ee 55 69 bd 20 5e 2f 3d 18 5a 72 bc 6f 35 30 bd
       -0.056966715 0.042814374 -0.014791988 -0.04301971
0000e0 74 50 e5 3c 4a 47 f1 bb 7f db 9a 3c 9d 34 5a bd
       0.027992465 -0.0073632346 0.018903492 -0.053272832
0000f0 24 be 9e 3d 8e b0 aa 3c 3b 6f db bc 93 68 c9 3c
       0.0775111 0.020836141 -0.026786437 0.024585998
000100 1d 0f 55 bc 51 54 54 3d 72 c4 1b 3c 91 cb 42 3d
       -0.013004092 0.051838223 0.009507285 0.047557417
000110 a2 5f 4a bc d6 2b 56 bc 9d 31 a8 3c 07 ed 6c bd
       -0.012351902 -0.013071975 0.02053147 -0.057843234
000120 ae 19 9c bd db 72 a4 bd 75 eb 5f 3c 4f 77 54 bd
       -0.076220855 -0.080297194 0.013666977 -0.051871594
000130 ff 62 05 3d c8 f9 3d 3d 78 67 a8 3b 8e 94 23 bc
       0.032565113 0.046380788 0.0051392876 -0.009984149
000140 0a f0 b9 3c cf 2f ae 3c 8c 5a 80 3c f7 82 08 3d
       0.022697467 0.021263031 0.015668176 0.033328023
000150 23 ed 62 bd 35 1d b3 bd 7a ad f5 3c 37 87 b4 bd
       -0.055401932 -0.08745805 0.029989947 -0.08814853
000160 0b f9 a4 bd 8e ae af 3c 26 3f 5e bd 67 2f 1e 3d
       -0.08055314 0.021445539 -0.05425944 0.038619425
000170 49 b5 c8 3c 17 e6 4a 3b ca 51 cb 3c e1 68 89 3c
       0.024500506 0.0030959898 0.024819274 0.016773643
000180 82 fe ec bb 5d 2f 9a 3c a0 e6 06 3a 07 a4 00 bc
       -0.007232488 0.018821413 0.000514606 -0.007851607
000190 53 12 4b 3b cb 54 da bc 6d 7a c1 bd 82 48 07 bd
       0.0030986264 -0.02665176 -0.09447179 -0.033028133
0001a0 15 06 84 bd 0d 71 1f bc 49 55 21 bd 7d 03 e9 bc
       -0.064464726 -0.009731543 -0.039387975 -0.028444046
0001b0 22 8a 9b 3b 68 ba b2 bb 68 5b da bc 93 51 ae 3c
       0.0047466913 -0.0054543503 -0.026654914 0.021279132
0001c0 1a 57 a4 3d 4b 73 0c 3d c4 bb 8e 3d 52 b6 2d bc
       0.08024426 0.03428964 0.06969407 -0.010602551
0001d0 68 e4 5e 38 c8 39 c0 3c 27 0c 11 bd 0b bd 33 bd
       5.3141644e-05 0.023465052 -0.03541198 -0.043881457
0001e0 3d 16 4c bd 87 5b d7 bc 41 b9 ad 3d f0 e1 51 bd
       -0.049825896 -0.02628876 0.084826 -0.05124086
0001f0 32 0d 6a 3d 56 ff 5d 3b 20 69 3f bd 4c ed 8d bd
       0.05714149 0.0033874116 -0.046731114 -0.069300264
000200 5f da 09 3d ed 44 ed bc 8f 99 ba 3c b4 ed 5d bb
       0.03365552 -0.02896353 0.0227783 -0.0033863606
000210 4a 6f 04 bd 60 bc c0 3c 27 70 ce 3d 94 ef 1a 3d
       -0.032332696 0.023527324 0.10079985 0.037826136
000220 f0 d3 a5 bc 56 90 cb bb 51 ce 0d 3d f8 98 17 b9
       -0.020242661 -0.0062122745 0.034620587 -0.00014457467
000230 6c e6 78 bc ff a1 64 bd 75 84 ea 3c 4a 4f f6 3b
       -0.015191656 -0.055818554 0.028627614 0.007516776
000240 92 5e 8f 3d 03 b0 c7 3c da ef b6 bc 9f 11 6d bd
       0.0700046 0.024375921 -0.022331167 -0.057878133
000250 ee 3b 32 bd a9 fa b8 3c e3 4c 77 bd a4 74 2d bc
       -0.043514185 0.022580462 -0.06037606 -0.010586891
000260 f3 99 0a bd 58 55 0a 3c 87 c1 20 3d 77 35 13 bc
       -0.033838224 0.008443199 0.039247062 -0.008984915
000270 71 bd 4d bd 14 13 0a bd c3 fa 82 3b 71 ce 5d bd
       -0.050229494 -0.0337096 0.0039971783 -0.054151956
000280 01 99 c6 bd cf 27 05 3d ef 85 ec 3c 1f 60 d8 3c
       -0.09697152 0.032508668 0.028872458 0.026413022
000290 68 6c 8f bb 1b d5 22 bc e6 ae 0d bc bf 6b 6a 3d
       -0.0043769367 -0.009938504 -0.008647656 0.05723166
0002a0 4b 9d f7 3a f4 f5 2c bd a3 27 2d 3d f2 bd 7d bd
       0.0018891481 -0.042226747 0.04227413 -0.061948724
0002b0 ac 87 83 bd 8b 15 53 bd ee d2 e6 3c 7b 22 83 bd
       -0.06422362 -0.051534217 0.028176751 -0.06403061
0002c0 1e 07 20 bc d6 e9 ca 3c e5 6b 55 bc e2 e6 11 bd
       -0.009767322 0.024769705 -0.013026212 -0.035620578
0002d0 8e 5b 8f 3c d9 9c cf 3c 65 87 d9 bb d3 fa 88 3d
       0.017499711 0.025343345 -0.0066384547 0.06688466
0002e0 45 1a 9e 3c e8 f5 33 3d 7c 3a 1d 3d 22 5f cd bb
       0.019299636 0.043935686 0.038385853 -0.006267444
0002f0 8f 5a 4c 3d d7 4e c6 3d 8c 33 02 3c c6 42 2e bd
       0.04989105 0.09683006 0.00794686 -0.04254415
000300 01 86 01 be 7e 04 91 bd c0 eb 5e bd d6 f8 a7 bd
       -0.12648775 -0.07080935 -0.054424047 -0.082017586
000310 eb 50 c5 bc bd e9 6f bd 74 83 4e bd 77 f4 f5 bc
       -0.024086436 -0.05857252 -0.050418332 -0.030023796
000320 c0 01 34 3d c7 ec 42 3d 23 9f 2b 3d 2c d1 4c 3d
       0.04394698 0.04758909 0.04189981 0.05000417
000330 0c 38 7c bb 24 62 00 3d 42 f4 38 3c 48 0a cd 3a
       -0.0038485555 0.031343594 0.011288704 0.0015643323
000340 2a e0 86 3c 23 8e 2d bd 7b f4 01 bd ed a0 2d bd
       0.016464312 -0.04237188 -0.031727295 -0.0423898
000350 00 e7 44 bd a9 cd fa bc 41 51 8f 39 31 35 08 3d
       -0.04807186 -0.030615645 0.00027335624 0.033253852
000360 4c 8a 82 bd 52 ca 9a bd 3f 5e d1 b9 72 c2 66 3c
       -0.06374034 -0.07558121 -0.00039933805 0.014084445
000370 46 9b 5e 3d 48 2e 84 3d 1b 5a a4 3d 18 6a 5f 3d
       0.0543473 0.0645414 0.08024999 0.05454454
000380 35 92 88 3d b3 4d 2b bc 8d fc 94 bd a8 86 33 bd
       0.06668512 -0.010455537 -0.07274733 -0.04382959
000390 82 c6 9d bd 8c 61 a1 bd 09 be 36 3d 0a 64 e7 bc
       -0.07703878 -0.07879934 0.044614825 -0.028245945
0003a0 c8 e6 12 3c 8c cc 57 bb 5c 25 99 bc 24 c8 55 3d
       0.008966155 -0.0032928316 -0.018694572 0.052192822
0003b0 4f 2d 0e bd 23 ce 00 bd 35 42 78 bd bf 50 8d bd
       -0.03471118 -0.031446587 -0.060610015 -0.06900167
0003c0 b5 c7 1a bd df 6c 42 3c 56 f8 0e 3d bd 93 28 bd
       -0.03778811 0.011866777 0.0349048 -0.04115652
0003d0 8d 6f 51 bd 7e df c8 3b a6 27 a3 bd 67 86 4a bd
       -0.051131774 0.006130158 -0.07966547 -0.049444582
0003e0 29 3f 78 bd 41 92 20 bd 9b 4c 05 3c 16 b5 30 bd
       -0.06060711 -0.03920198 0.00813594 -0.043141447
0003f0 d9 b2 1a 3d f6 b3 12 bd 18 b8 77 3d ab aa 25 bc
       0.03776822 -0.035816155 0.0604783 -0.010111491

cnn2.bias f4 [64]
000000 55 2e c6 bc 46 43 7e 3c 4a ec 8a 3c 24 07 2f bd
       -0.024192015 0.015518969 0.016958375 -0.04273142
000010 18 ae 57 3c 73 0b 08 bd bc f2 e5 bc a6 06 34 3d
       0.013164066 -0.033214044 -0.028069846 0.043951653
000020 19 e8 70 bc 6a d8 2e 3d 1b 76 ce b9 ab 2b 36 3d
       -0.014703774 0.042686857 -0.00039379377 0.04447524
000030 97 c1 0c bd de f5 2e 3b 34 15 b5 3c 5c 1f ea bc
       -0.03436431 0.0026696841 0.022104837 -0.028579406
000040 2a 11 04 3d 03 a2 06 bd 19 cd a9 3b 6a 61 5c 3d
       0.03224293 -0.03286935 0.0051819202 0.05380384
000050 a2 71 c1 3c 2b 66 df bb 78 ac 50 3d bd 59 44 bd
       0.023613755 -0.0068175993 0.05094573 -0.047937144
000060 1f 19 0e bd 81 a4 1b 3d e4 b2 03 bd 0a 4d 3a bd
       -0.034691926 0.03799868 -0.032153025 -0.045483626
000070 50 84 6b 3c 71 48 8d bc dc 01 32 bd 61 ee cc 3b
       0.0143748075 -0.017246457 -0.043458804 0.006254003
000080 4a 55 70 3c 85 15 f3 bc 48 24 48 3c f0 32 70 bc
       0.014668772 -0.029673347 0.012215681 -0.014660582
000090 ea 80 33 3c 1b b9 4a 3c 7a 57 25 bd eb 4c 18 bd
       0.0109560285 0.012373234 -0.040366627 -0.03718273
0000a0 08 68 26 bd 98 73 69 bd 8c 56 30 bd 92 f1 87 3b
       -0.040626556 -0.056995004 -0.043051288 0.0041486705
0000b0 4f da b4 3c f5 f4 9b bc 2e bd 25 bd c4 69 6f 3c
       0.022076754 -0.019037703 -0.04046362 0.014612619
0000c0 52 b6 83 bd 8e c1 28 ba 89 a9 7e 3d 88 e4 6b 3d
       -0.06431259 -0.00064375333 0.0621734 0.05759099
0000d0 8e ab 2f bd 4b 36 1f 3d 4f 29 21 3d b9 3c 40 bc
       -0.042888217 0.038870137 0.039346036 -0.011733227
0000e0 46 82 39 bd 29 ae 11 3c f5 d2 77 bd 38 25 2e 3d
       -0.045290254 0.008891621 -0.06050392 0.042515963
0000f0 48 f1 c4 bc 82 1d 83 3c c5 39 4c bd 80 87 05 bd
       -0.024040833 0.016005281 -0.04985978 -0.032599926

fc.weight f4 [10, 9216]
000000 ab 4d dd 3a 82 59 bd bb 2e a9 24 bb 26 db fa bb
       0.0016884109 -0.0057784924 -0.0025125253 -0.007655519
000010 d7 67 56 bc 6b ce aa bc 68 f3 76 bb 34 19 86 ba
       -0.013086281 -0.02085038 -0.0037681703 -0.00102309
000020 b9 a6 8b bb 25 5f 95 3a 60 39 02 bc bd d2 fe bb
       -0.0042618182 0.0011396153 -0.00794825 -0.007776587
000030 26 5a 7e 3b 0f fb c3 bb c4 52 95 bc 82 d8 98 bc
       0.0038811057 -0.0059808563 -0.018227942 -0.018657926
000040 c6 7d 10 bd c9 b4 95 bc 3b 89 a8 bc 7a b1 b9 bc
       -0.035276197 -0.018274682 -0.02057325 -0.022667635
000050 6b 7d b2 3b 7a 3e 23 bc b9 d4 29 bc 73 fe d7 39
       0.00544708 -0.009963626 -0.010365658 0.00041197575
000060 4a 10 1f bc bd 51 28 bc 58 1a 3e bc de cd 65 bc
       -0.009708473 -0.010273394 -0.0116029605 -0.014026133
000070 6c 66 61 3a 0e 94 74 3b 2e b4 d4 3b e6 89 18 3b
       0.0008598331 0.0037319693 0.0064912057 0.0023275553
000080 1c c4 86 bb 7d 70 4d bc aa a6 c1 bc 22 a2 bc bc
       -0.0041127335 -0.012539026 -0.023639042 -0.02302653
000090 d9 eb b5 bc a0 b9 29 bb 7d 45 f0 bb 92 cc e1 bc
       -0.022207187 -0.0025897995 -0.0073325024 -0.027563367
0000a0 f3 c7 1b 3b 41 7f 31 bc 63 a5 15 bc d0 d9 cd 3b
       0.0023770302 -0.010833562 -0.00913367 0.006282069
0000b0 b2 c5 3b 3b d6 4f 81 3b 67 0a 32 bc 4f 59 ae ba
       0.002865177 0.0039462848 -0.010866738 -0.0013301763
0000c0 ca 2f f0 3b 91 fb 58 3c 71 ac 0f bd 63 ac b9 3b
       0.0073299157 0.013243572 -0.035076562 0.005666302
0000d0 3e e8 cd bb f4 70 70 3b 4f e3 ac 3c a5 99 b9 3c
       -0.006283789 0.003668842 0.021104483 0.022656271
0000e0 57 49 21 3b 7e 20 dd 3b d8 1f 8e bc ba 6a bb bb
       0.0024610364 0.006748258 -0.017349169 -0.00571951
0000f0 45 28 92 3c 43 55 08 3d 33 f2 1a bc 51 e3 01 bc
       0.017841468 0.033284437 -0.009457159 -0.007927732
000100 9b 23 14 bc 15 05 b9 ba 7a 8e 0a 3c a6 20 cc 3b
       -0.009041692 -0.0014115894 0.008456821 0.006229478
000110 95 aa dd 3b 0a a8 ec ba fb f3 6c bc d1 19 99 3b
       0.0067647197 -0.0018055451 -0.014462466 0.004672267
000120 05 97 c5 3b 36 e8 9d 3c 77 93 49 3c ee eb 08 3c
       0.006029966 0.019275766 0.012303225 0.008357031
000130 1e 1a 94 3b 31 00 95 bb 0f 5f 38 bd 9d 0e 56 bd
       0.004519715 -0.004547142 -0.04501253 -0.05226003
000140 2c ce bb bc 0a 59 e8 3b f5 43 0a 3a dc 24 71 3b
       -0.022925459 0.0070906924 0.00052744086 0.0036795652
000150 7c 27 9d 3c 88 85 8f ba 00 a2 41 3b 3d 9a 60 39
       0.019183867 -0.001094983 0.0029546022 0.00021419763
000160 a3 b5 77 bc 84 9a 9e bc fa 92 67 bd 9d 81 41 bd
       -0.015118989 -0.019360788 -0.056536652 -0.04724275
000170 a5 54 76 bc 76 89 26 3c 96 6f fd 3b 80 67 08 3d
       -0.015034829 0.010164609 0.0077342493 0.03330183
000180 52 79 9b 3a e5 28 89 3b 01 f5 c0 3b 3d 20 7b ba
       0.0011861718 0.004185783 0.0058885817 -0.0009579694
000190 60 4a 16 bc 7d ce 83 bc a0 37 a1 bc 33 09 40 3a
       -0.009173006 -0.016089672 -0.019679844 0.00073255895
0001a0 1e bf a6 3a da cb 9b 3a c5 1a 82 3c b3 45 d5 3c
       0.0012721752 0.0011886314 0.015881905 0.026034212
0001b0 dc 2b 7d 3c b5 4d 6f 3c 1a 3a b7 39 76 ea 0b 3c
       0.015452351 0.014605929 0.0003494777 0.008539787
0001c0 96 a5 7b 3b 37 9e e4 ba ea 2e 6f b9 36 85 d5 3b
       0.0038398257 -0.0017442171 -0.00022810293 0.006516124
0001d0 a9 97 0e 3b c2 a1 7e 3c 2c 82 e2 3c bc eb 4f 3c
       0.0021757877 0.015541496 0.027649961 0.012690481
0001e0 e4 74 87 3b 65 b8 9b 3c a0 b7 df 3b 93 cb cc 3b
       0.0041338075 0.019008825 0.0068273097 0.006249854
0001f0 b9 03 98 38 5e 52 3a bc 7d 04 ab 3b a5 60 e3 bb
       7.248618e-05 -0.011372177 0.005219041 -0.006939011
000200 17 fa 0a bc cb 8f d1 3a 22 e0 7d bc 6e 5c f0 ba
       -0.008482478 0.0015988288 -0.015495332 -0.0018338093
000210 51 89 75 bc c5 07 2b bc 78 42 52 3c 59 8a fc 3b
       -0.014986352 -0.010438864 0.01283323 0.007706922
000220 fd 59 84 3c 71 f6 9e 3c 29 34 88 bc a2 b5 78 bc
       0.016156191 0.019404622 -0.016626434 -0.015180023
000230 87 f4 43 3c 32 ce 1c 3c 73 9a 3c bd 8d 2d 56 3b
       0.011960155 0.009570645 -0.04604573 0.003268096
000240 c8 fb 6e 38 e4 3d e9 3a 5c 14 bc 3b 23 16 7b 3b
       5.697811e-05 0.0017794934 0.0057397317 0.0038312755
000250 77 3e b4 bb 32 ba 7c bb 7d eb 34 bb 15 1f b6 3b
       -0.0055006105 -0.003856313 -0.0027606182 0.0055579045
000260 f3 89 a4 3b 32 e0 e8 3b 0f 13 31 bc 38 73 5d 3a
       0.0050213276 0.0071068043 -0.010807767 0.000844765
000270 80 ac ce bb 95 19 6e bc 9c d5 95 3b b4 6e bd 3b
       -0.0063071847 -0.014532466 0.0045725834 0.005781019
000280 71 f9 b1 bb a3 be 4e bc ec ac 07 bc 9e 14 10 bd
       -0.005431347 -0.0126186935 -0.008280974 -0.035175912
000290 17 35 fe 3b ca d7 94 3b 17 17 dd bb 71 63 de ba
       0.0077577936 0.0045423256 -0.0067471373 -0.0016966892
0002a0 b6 de e4 bb 02 c8 20 bc dc 4a ea 3b 80 7f 59 3b
       -0.006984557 -0.009813311 0.007150037 0.0033187568
0002b0 86 f3 39 3b f6 55 7c bb c2 a7 97 bb 1a 1c c2 bc
       0.002837391 -0.0038503385 -0.0046281526 -0.02369504
0002c0 bc ea 0f bd ae 91 9e bb 0d 5e c1 bc 41 32 62 bc
       -0.03513597 -0.0048391437 -0.023604417 -0.013805927
0002d0 ce ba ef bb 4d 78 34 bc f9 23 db bb 51 45 4a 3b
       -0.00731597 -0.01101501 -0.006687638 0.003086407
0002e0 5c fd 9e bb 67 ad c6 39 92 7d 10 bc 0e 0d e9 bc
       -0.00485198 0.00037894698 -0.008819001 -0.028448608
0002f0 65 dc 46 bd 83 a1 1c bd bd e8 a5 bc 3f 7c 78 bc
       -0.04855003 -0.038239967 -0.02025258 -0.015166341
000300 85 d2 5a 3b 17 45 d3 bb b1 10 00 bc 34 7c a2 bc
       0.003338964 -0.006447445 -0.00781648 -0.019834615
000310 79 2d 0b bd be cc 29 bd 08 ad 01 bd 31 9a 8e bc
       -0.033978913 -0.041455023 -0.031659156 -0.017407509
000320 9b f2 4d bd bc 94 01 bd aa aa 54 bc b3 69 cf bc
       -0.050280195 -0.031635985 -0.012980143 -0.025318956
000330 73 02 1d 3c 05 a6 43 bc d3 f2 e0 bc 86 0c d0 bc
       0.0095831035 -0.011941438 -0.027459538 -0.025396597
000340 33 a4 a5 bc 6b ff 5a 3c f7 03 c3 3c 09 87 a4 3b
       -0.020219898 0.01336656 0.023805602 0.0050209803
000350 eb 6d 0e bd f4 e5 52 bd ce f9 82 bc fe 5f ed bc
       -0.034772795 -0.05148883 -0.015988257 -0.028976437
000360 55 17 a0 bb 44 22 09 bd 32 0c b3 bc b8 b6 f4 bc
       -0.004885594 -0.033479944 -0.021856401 -0.029872283
000370 1c 86 02 3b bf 03 16 3c b8 9e 0d 3d 42 78 04 3d
       0.0019916361 0.009156167 0.034575194 0.03234125
000380 e5 7f ef bc 14 93 d0 bc 86 2d 8b bc 15 c7 90 bc
       -0.02923579 -0.025460757 -0.01698948 -0.017673055
000390 77 db 1d bc 20 81 a2 bc 45 08 1d bd 9c 5e ee bc
       -0.009634844 -0.019836962 -0.038337965 -0.029097848
0003a0 2e aa 5f 3c 2e ef d7 3c 9e c3 bc 3c b4 78 6d bc
       0.013651414 0.026359167 0.023042496 -0.01449411
0003b0 fa bb 7b bc b1 d2 90 bc 9e 36 a0 bc ee c5 96 bc
       -0.015364641 -0.01767859 -0.019557294 -0.018404927
0003c0 5c cc 2e bc 90 d8 a3 bc 65 fb d6 bc ec 55 3d bd
       -0.01066884 -0.020000726 -0.026242921 -0.04622452
0003d0 0a 16 17 3c 3f 16 4e 3c 2e 4e bd 3a e0 7f e9 bc
       0.009221563 0.012578546 0.0014442855 -0.028503358
0003e0 24 a7 ac bc 3f e5 ad bc 88 01 6e bc 76 03 37 bc
       -0.021075793 -0.021227477 -0.014526732 -0.011170259
0003f0 54 f0 8d bb 56 f2 65 bb aa c5 ca bc 27 d3 db bc
       -0.004331628 -0.003508707 -0.024752457 -0.026834084

fc.bias f4 [10]
000000 fb 03 a5 bb 7b 6e 1b 3c fc 9b b8 3b af 2d 17 bc
       -0.005035875 0.00948679 0.005633829 -0.0092272
000010 e8 e2 17 3c 64 3b 8b ba 50 3d a5 bb 91 0a 18 3c
       0.009270407 -0.0010622558 -0.0050427094 0.009279863
000020 3f e7 5a bc ee c9 39 bc
       -0.013360797 -0.011339648
