S1_final_exercise/checkpoint.pth (torch, 440166 bytes, 6 tensors)

fc1.weight f4 [128, 784]
00000000: 5ef0 b0bc 877c 8ebc 48b5 863b d818 433c
00000010: 3c7c 79bc 1003 0b3b 2001 19bb 5eb4 e93b
00000020: 62d7 bebc d9b9 dc3c 1480 b2bb 901c 283c
00000030: 98d4 3c3c bfc3 153d a4d3 5c3c d8e2 babc
00000040: 40e9 e43b c8d2 fbbb bcbe 733c 8cbd 96bc
00000050: c82d c2bc a0aa 0abb 00f6 bbbb 70e9 5b3b
00000060: ee0c 943c b140 013d 3293 833c 55a2 043d
00000070: 2010 e53a 9e60 ccbc 4830 a4bb fab2 e8bc
00000080: c8b6 02bd 2eb0 1bbc d8c9 023c 283e bcbb
00000090: ce36 2a3d 2f42 9c3a 77fc 113c b5b0 8e3c
000000a0: 8825 b63c 7c19 01bc 5783 683c 5841 e3bc
000000b0: 4975 98bc 2e69 0dbd fe6e b03c ce32 f1bc
000000c0: 087e c8bb 9e83 e13c 9cd1 11bd c33a d5bc
000000d0: 8cf7 dcbc 9004 12bb 02d1 a73c 309d 033b
000000e0: 18c2 d5bc 289a 4b3c 94a9 dabb 121f e03c
000000f0: 62da c33c a3b9 eabc e788 513c bdc2 95bd
00000100: 2300 50bd 2b60 f9bd c35e 143c 192b 3fbd
00000110: 7f84 edbd de7a 5dbe e1fa ae3c b45e 9e3c
00000120: 9d74 603d 0e59 2e3c 3a0e 073d 4a09 0f3d
00000130: 6be5 fe3c 7cb6 6e3c 3447 7f3c 9035 f63b
00000140: ea16 96bc 6f60 0abd e0f8 173b 6028 53bc
00000150: 6283 903c dc9b bc3c a00c d8ba 3286 26bc
00000160: 6018 5dbb cf56 40be 1aee 73be df18 83be
00000170: 5af9 43be 92f0 0bbe 3de6 2dbe 3687 08be
00000180: 4f11 10be bd46 82be 279b e6bd 8df3 653d
00000190: 83ef ec3d e2a5 903d 9f07 003e c13e 2abb
000001a0: 21a4 1bbc 2b76 9cbc b9a1 9cbb 4554 54bc
000001b0: 1255 bebc af18 0a3d aeda 903c 3073 d6bb
000001c0: 6045 473b c0bd 943a 5eca f53c 38e3 a6ba
000001d0: b056 bbbb d434 25be 3cd1 53be f198 9cbe
000001e0: f9a3 0bbe 9a0e 9fbd e4ab 683d c67b 50bd
000001f0: 4e53 4c3d 4a3e 413d 699d e13d 7d5a d53d
00000200: a1e4 1b3e ba45 f93d 08ba e93d b89c f93c
00000210: eadd 3e3d ed97 42bd c0fd aabc dd15 be3c
00000220: a732 0ebd 6ed7 f83c 1841 6f3c 40d8 a7bb
00000230: 0089 97b9 4e59 07bc b870 a23b 6622 1dbd
00000240: 8364 fa3c 3738 3dbe cf02 a3be 3894 3cbe
00000250: 9aa8 95bc 5349 3bbd c206 febc e0f0 db3c
00000260: efec ba3d 9f0a 113c 00cf 0b3d 6d90 d23b
00000270: bad8 423b 9e65 263d 4aa1 a23d ddb0 273d
00000280: f148 923d 9681 c33d 94b5 fc3d 2d3b db3d
00000290: 0286 013e a983 d2bc f91b 6b3c b7a9 463b
000002a0: a0bd 993c a83d 153c 4e18 46bc 0ed2 a0bc
000002b0: cb6b bcbb 0043 67be 3c40 84be 4618 733c
000002c0: 0ff7 0a3d aee7 4cbd 1c35 973c 14ad a13c
000002d0: 0f11 7b3d b14e a03d 75e6 563d cc07 f13c
000002e0: 316e 9a3c 09f8 bb3c 383e 953c fdb0 1e3d
000002f0: 2d76 763d e72c ec3d b9ad 633e c46b 6d3e
00000300: df72 233e b83d 453e 66f4 2c3e e220 f33c
00000310: 1a18 8a3c 0aa2 823c d3bb 873b 3843 013d
00000320: cb85 80bd 6759 9fbc d01c 6b3d 8191 60bc
00000330: 020b 78bd 6d82 d33d 0ac9 a83d a530 c83d
00000340: 1ee2 2f3b 6469 8f3d 8469 f13d d984 e63d
00000350: 84c2 5c3d 89c4 8f3d 29be 403d ec74 85ba
00000360: 90f9 153d 5789 f63c 397c 993d 664c 153d
00000370: 8e7c d23d 6980 e13d a159 003e 89a6 023e
00000380: 4017 8a3c e56b cabc 92ac 49bd 00e9 943a
00000390: 581d 68bd 17b5 9fbd 7aae 65bc 220b d8bd
000003a0: 0e63 bf3c 2a98 283d 185f 943d c767 25bd
000003b0: 57bf f03d 0037 d23d a2a0 da3d ba7f 023c
000003c0: a0cb 023d a976 653d e44a 923d 5626 6b3c
000003d0: b781 993d f490 7d3d 8b8e 1c3d b8db ac3c
000003e0: 4dcd 0bbd c02f 343d 7d0b e63c 03cb 553e
000003f0: a545 85bc 0ecb 7ebc d5a5 00bd b810 2c3c
-0.021598991 -0.017393364 0.004110966 0.011907779 -0.015227374 0.0021211542 -0.0023346618 0.007132097
-0.023296062 0.026944088 -0.005447397 0.010260716 0.011525296 0.03656363 0.013478193 -0.022813246
0.0069858134 -0.007685039 0.014877018 -0.01840093 -0.02370347 -0.002115883 -0.0057361126 0.0033555888
0.018072572 0.031555835 0.0160614 0.032381374 0.0017476119 -0.024948414 -0.0050106384 -0.028405655
-0.031912595 -0.009502454 0.007982694 -0.0057447143 0.041556172 0.001192158 0.00891029 0.017418245
0.022234693 -0.007879611 0.01419147 -0.02774112 -0.018610613 -0.034524135 0.0215373 -0.02944317
-0.0061185397 0.02752858 -0.03560029 -0.026028996 -0.026973508 -0.0022280551 0.020485405 0.0020082705
-0.026093528 0.01242689 -0.0066730473 0.027358565 0.023907844 -0.028652972 0.012788988 -0.07312534
-0.05078138 -0.12176546 0.009055796 -0.04667196 -0.11597537 -0.21628901 0.021359863 0.019332267
0.05479871 0.0106413495 0.032972552 0.034920968 0.031115254 0.014569875 0.015580941 0.0075137094
-0.018321473 -0.033783372 0.0023189113 -0.012888044 0.017640773 0.023023538 -0.0016483255 -0.010163831
-0.0033736452 -0.18783115 -0.23821297 -0.25604913 -0.19138089 -0.13665989 -0.1698236 -0.13332829
-0.14069103 -0.25444594 -0.11260062 0.05614047 0.11569121 0.0706289 0.12502907 -0.0025977346
-0.009499581 -0.019099316 -0.004780021 -0.012959545 -0.023233924 0.033714946 0.0176824 -0.006544493
0.003040634 0.0011348054 0.030003723 -0.0012732511 -0.005717121 -0.16133434 -0.20685285 -0.30585435
-0.1363677 -0.07766457 0.056804553 -0.05089929 0.049884133 0.047178544 0.11016352 0.1041765
0.15223934 0.121715024 0.11412436 0.030470237 0.046598352 -0.04750817 -0.02087295 0.023203785
-0.034716275 0.030376162 0.014602922 -0.0051222146 -0.00028903037 -0.008261038 0.004957285 -0.038362883
0.030565506 -0.18478476 -0.3183808 -0.18415916 -0.018268872 -0.045724224 -0.031009082 0.026848257
0.09127223 0.00885263 0.034132957 0.0064259083 0.002973123 0.040624253 0.0794092 0.040940154
0.07142819 0.09546201 0.12339321 0.10704646 0.12648776 -0.025697546 0.014349931 0.003031356
0.018767178 0.009108938 -0.012090756 -0.019631412 -0.0057501546 -0.22584152 -0.25830257 0.01483733
0.03392702 -0.050025634 0.018457942 0.01973585 0.061295565 0.07827509 0.052465875 0.029422663
0.018851371 0.02294542 0.018218145 0.038743008 0.060171295 0.11532002 0.22234239 0.2318564
0.15961789 0.19261825 0.16890106 0.029678766 0.016857196 0.015946407 0.0041422634 0.031558245
-0.06275519 -0.01945181 0.057400525 -0.013706566 -0.060557373 0.10327611 0.0824147 0.09774903
0.0026837657 0.070025235 0.11787704 0.112558074 0.053896442 0.07019908 0.04705635 -0.001018194
0.036614954 0.030094786 0.07494397 0.036449812 0.10277663 0.110108204 0.1253419 0.1275884
0.01685679 -0.024709651 -0.04923684 0.0011360943 -0.05666861 -0.07798212 -0.014018649 -0.105489984
0.023362663 0.04116074 0.072447 -0.040382173 0.11755245 0.10264397 0.106751695 0.007965023
0.031932473 0.056021366 0.071431905 0.014352402 0.07495444 0.061905816 0.038221877 0.021100864
-0.034131337 0.04399085 0.02808165 0.20878224 -0.01626856 -0.015551342 -0.03140815 0.010502033

fc1.bias f4 [128]
00000000: 10ac 583d 4e7e b83d 4f32 753d 43f4 d2bb
00000010: cec9 1bbc c017 f03c 2652 2a3c 4029 9a3d
00000020: d88a 19bd 0d16 8b3d 6285 143d e32c a4bb
00000030: 5cf5 333e b73a 95bd 1586 eb3d 368e af3c
00000040: 7743 383d 37c4 93bd 722a f03c ef0d b93d
00000050: 9ae1 213e ef87 113c 2acd b13d 5f5c 78bd
00000060: bd7e 86bd 91a5 cfbd 6b65 48bc 37f3 17ba
00000070: 4622 8c3d bbc8 53bd 1222 803c da3a a23a
00000080: 75ae cfbc 286f 8fbd a791 a2bb f080 d4bd
00000090: 6a1d f53d 49ff 513d e6e8 77bc b29c 46bd
000000a0: 3eda 693d 4532 5b3d 5944 1d3d 91ed 38be
000000b0: a6bb 033e 557b b73a 69df a13b 3c82 17bd
000000c0: 4095 a73c 0699 203d a708 893d 00f7 ddbd
000000d0: bb4f e53d b605 373d e08d e8bc 5753 2f3c
000000e0: a01c dc3c c9fe 0c3e 17d2 cabd ea0a a03c
000000f0: e72d ccbc 161a 383c 1c22 58bd ebc7 1c3d
00000100: b259 f93d 65c6 d5bc cceb 993c c047 8c3d
00000110: 203b 91bb 2344 7d3d 9afe 3f3d 2092 b9bd
00000120: 4190 a53d 2871 dcbd b56c 1a3c c48e e9bb
00000130: 7c89 28bd 87e8 bdbd 1044 aebd 9250 9f3d
00000140: 6a5e 2fbd 5402 903d 2d4c 1e3e 4c5c 093e
00000150: 2c0c f8bd 40f2 e73d cb14 0abd 861c c53d
00000160: 9e41 8abd a780 d2bc 61e5 1b3e 87c2 923b
00000170: 3f78 933d 11d8 2f3e 0309 bb3c 980d 66bc
00000180: 26b8 983d 6489 e93c 7a3d 4abd 8a8b ecbd
00000190: ae3f bd3d 6a31 843d e985 e03d 218e 1fbd
000001a0: dc81 83bd 71e2 9ebd 4ef2 033c fb45 ec3d
000001b0: 83bd 853d 8b8b 263d 69bd 003e 28bd c53d
000001c0: 5652 dabd 4549 173d 67f7 913d c007 8dbd
000001d0: ad18 5f3d 4c7c 6c3b 4d76 503c abd1 9e3d
000001e0: eab6 3d3d e963 1a3b a620 7cbd 3cc7 e93d
000001f0: 896a adbd e07c 2f3b 7296 8c3c c74d 403e
0.052898467 0.09008466 0.05986243 -0.0064378097 -0.009508563 0.0293082 0.010395562 0.07527399
-0.037485927 0.06791315 0.036260016 -0.0050102337 0.17574066 -0.072865896 0.115001835 0.021430116
0.044986214 -0.072151594 0.029317115 0.09035861 0.15808716 0.008882507 0.0868171 -0.060634967
-0.06567142 -0.10139001 -0.012231211 -0.00057964347 0.06842475 -0.051705103 0.015641246 0.0012377158
-0.025351742 -0.07003623 -0.004961211 -0.103761554 0.11968501 0.05126885 -0.015131211 -0.04848928
0.057092898 0.053514738 0.03839526 -0.18059374 0.12864551 0.0013998548 0.0049399626 -0.036989436
0.02045691 0.039208435 0.066911034 -0.10838127 0.11196848 0.04468318 -0.028387964 0.010701022
0.026869118 0.13769068 -0.09903353 0.019536454 -0.024924232 0.011236688 -0.052766904 0.038276594
0.12175311 -0.026095578 0.018789195 0.06849623 -0.004432097 0.06183256 0.046873666 -0.09061074
0.08084155 -0.1076377 0.009425332 -0.0071276147 -0.04114674 -0.09272867 -0.08509076 0.077790394
-0.04281465 0.07031694 0.15458746 0.13414115 -0.121116966 0.113255024 -0.033711236 0.09624581
-0.06750797 -0.025696112 0.1522422 0.004478756 0.072006695 0.17172267 0.022831446 -0.014041327
0.074569985 0.028507896 -0.049375035 -0.115500525 0.092406616 0.064547375 0.10963041 -0.038953904
-0.06421253 -0.07758034 0.008053375 0.11536785 0.06530287 0.040660422 0.12572254 0.09655219
-0.106602356 0.03693511 0.071272664 -0.06886244 0.054466892 0.003608483 0.012723518 0.07754835
0.04631702 0.0023558086 -0.061554573 0.11414954 -0.084675856 0.0026777312 0.017161582 0.1877967

fc2.weight f4 [64, 128]
00000000: da66 81bd 8622 9a3e 10a0 183d 5d87 373c
00000010: c143 a6bd 7f26 1e3a 78f3 a1be 1d79 ca3e
00000020: dfce b8bd de9f 033e 8a70 5fbd d1a2 903b
00000030: 9e49 0b3e e473 4e3e 4b9e e3bd dfc5 c1bd
00000040: b29f 84bd cc24 91bd 72fc ad3c 66c5 833e
00000050: 9a9c 40be fa1d 043d a021 cbbd 12e5 8fbd
00000060: 06c5 b2bd d82b 1d3e ef06 a93d f2d6 3fbd
00000070: 5676 c93d d783 4e3d cb1f 2abd fa67 963e
00000080: 5b82 efbb c287 e8bd 1c4a 37be fa4d ddbc
00000090: 7b0f c53d da51 4d3e 6d99 8fbd d2ac 2cbd
000000a0: 48bd 9e3c 67b0 303e 2443 59bd 68ee 0bbe
000000b0: d520 0c3e 870b c93d dc7f a13d ad3c afbd
000000c0: ee7e 8b3d 4303 e1bd 0a47 9b3e 3f8a e33b
000000d0: 2174 063e c3d9 a5bd ea07 4f3d aa8a e33d
000000e0: 2ef2 033e 057f 483e fd03 953d 80f4 b6be
000000f0: 613b 943d 9f1d 47be 128d 85be 8c81 fc3d
00000100: 3321 8d3d e9cd 993d 1d57 cdbd 92c0 253e
00000110: b22a 9239 a927 a43d 8a16 e8bc 905b 35bd
00000120: e4e7 333e e16e b63d a095 1a3d b3b4 98bd
00000130: bbe5 1dbe cccf 32be 2775 d83d 2748 633e
00000140: d5fb 09bd 51af 3d3d 38c9 fa3b 0594 833e
00000150: ae68 38bc b940 f43c 52ca ce3d 3811 9d3e
00000160: 9337 843d a0a5 3d3c 6edf af3d f694 bbbd
00000170: b8b0 2dbd 430b 253c 7e9a a13e b852 a73e
00000180: bc08 a2be 7e14 fe3d 9915 0fbe 5a66 423e
00000190: 82d8 863d 9340 1bbe 38ae 873d f5e7 e8bd
000001a0: e7e4 183d bae9 c1bd cbb6 94be 2342 87bc
000001b0: 445a 0abd 348c b53a 3e2d b9be 7e3e 1cbe
000001c0: 6f09 4cbc 09d9 543d 317c 2d3e 4a14 2f3d
000001d0: e449 6dbd 9f69 9e3c cb93 1dbe d663 d53e
000001e0: 1d0e 8abd 4eac 97bd 0beb b1bd 477b 413c
000001f0: 6c3c 7e3d 25e9 afbd dae9 413e 05df edbb
00000200: ba7b 183d 9aea bb3d d511 af3d 2eba f2bc
00000210: db95 a0bd 1226 603d 718c 5dbd 6cbf 9ebd
00000220: dbc6 2e3d c174 103e 7df0 55be 181f 18bd
00000230: 0b92 353d 0898 0a3d 7afe e43d 0e20 73bd
00000240: d180 893d 7d96 3fbe 1c45 58be 6ee6 8a3e
00000250: b30a 50be 10d8 48bd fa9b 8dbd 12b4 fa3d
00000260: 9acc b7bb 3039 283e 7e5f 293d 5609 4dbb
00000270: 9722 0b3e a9dd 39bd 2db7 45be 8beb 5d3e
00000280: aada 00bd 1388 9ebb 53ea 80bd 9783 553d
00000290: e1bc 55bb 7a32 c03d 56fc c6bd 5a91 15be
000002a0: 1033 ebbc a8fc 753c 3b49 4f3c 6c92 ca3c
000002b0: e699 613e 89d3 05be 9eb3 66bb 9464 acbd
000002c0: 5e4b 1bbc 46db 15be be8f 0e3e 47e8 4c3d
000002d0: 5ac0 f7bc e8eb b83e a6e5 6bbe 66f7 823d
000002e0: ab92 a0bd 7252 4b3e d76d 3dbe 2c1f 0abd
000002f0: 8a2e 40bc 0045 6bbe b5af 883c 05cb 463e
00000300: 1f5e bd3e f49a c6bd fc8c 86be e552 663d
00000310: bf51 743e d375 29be 40f3 b63d 1809 3abd
00000320: 8289 fe3d a042 153e 5727 0b3c e66f 44be
00000330: d036 9e3c e5a4 adbc e83a 0dbd c0ce aa3d
00000340: 5edc 973d f176 623e fc7c 2ebe 1f64 413e
00000350: a1aa 33be 9c67 ebbc 67c0 0d3e a178 1b3e
00000360: 5b10 9fbd b048 f33d 131a 843d 720c 80bd
00000370: 9d2f 253e 22c7 8f3d cc44 473e 649a 82bc
00000380: e5a2 79be a868 28bd b119 a6bd 8022 37bd
00000390: 85b7 323d 7666 c93d c585 353e 0a49 4bbe
000003a0: cb95 4b3e 4ac1 53bd d63f 053d 0804 e93c
000003b0: 51c5 d23e be09 6fbe 5940 bcbd ff66 003e
000003c0: 8164 4d3c e766 cc3d e74b b93d 1846 b73d
000003d0: 28fb adbc 7815 56bd 1f75 eabd 12aa 0f3e
000003e0: 71ec 503e d730 bc3c a8df 19be 802c 8f3d
000003f0: 0628 84bd 7337 ce3b 3ddc 933e 3b7a 44be
-0.063184455 0.30104464 0.037262022 0.011201707 -0.08118392 0.0006032958 -0.31631064 0.39545527
-0.090238325 0.12853953 -0.054550685 0.0044139405 0.13602301 0.20161396 -0.11114176 -0.09461569
-0.06475772 -0.070870966 0.02123854 0.2573654 -0.18809739 0.03225515 -0.09918523 -0.070261136
-0.087289855 0.15348756 0.082532756 -0.046835847 0.09837024 0.0504187 -0.041534226 0.29376203
-0.0073092408 -0.11354019 -0.17899364 -0.027014721 0.09622093 0.20050755 -0.070116855 -0.042157
0.019377366 0.17254792 -0.053042546 -0.13665164 0.136844 0.09816652 0.07885715 -0.08556495
0.06811319 -0.1098695 0.30327636 0.0069439705 0.13130237 -0.080981754 0.050544657 0.111104324
0.12885353 0.19579704 0.07276151 -0.35733414 0.07237888 -0.19444893 -0.2608419 0.123293966
0.06891098 0.07509977 -0.10026381 0.16186741 0.000278791 0.08015377 -0.02833106 -0.044276774
0.17568928 0.08907867 0.03774035 -0.07456341 -0.15419666 -0.1746208 0.1056922 0.22195493
-0.03368743 0.046309773 0.0076533817 0.25698867 -0.011255426 0.029816018 0.10097183 0.306772
0.064559124 0.011575133 0.08587538 -0.091592714 -0.04240486 0.010073486 0.3156318 0.32680297
-0.3164729 0.12406252 -0.13973083 0.18984357 0.06584264 -0.15161352 0.066250265 -0.11372367
0.037327673 -0.09468408 -0.2904571 -0.016511029 -0.03377749 0.0013850988 -0.3616733 -0.15258214
-0.012453421 0.051964793 0.16941907 0.04274396 -0.057931796 0.019337473 -0.1538841 0.4167773
-0.06740973 -0.074059114 -0.08687409 0.011809177 0.06206934 -0.08589391 0.18936864 -0.007259252
0.03722737 0.09175606 0.08548323 -0.029629793 -0.07841083 0.054723807 -0.054089013 -0.077513546
0.042670112 0.14107038 -0.2089252 -0.03713903 0.04432873 0.033836395 0.1118135 -0.05935674
0.06714023 -0.1870975 -0.21120113 0.2712893 -0.20316581 -0.04903418 -0.06914516 0.12241377
-0.005609107 0.16428065 0.041350834 -0.0031286082 0.13587414 -0.045377407 -0.19308157 0.21671884
-0.031458534 -0.0048379987 -0.06294694 0.052127447 -0.0032613801 0.09384628 -0.09716098 -0.14606228
-0.028710872 0.015013851 0.012651737 0.024728023 0.22031364 -0.13068976 -0.0035202275 -0.08417621
-0.009478418 -0.14634427 0.13922021 0.050026204 -0.030243088 0.36117482 -0.23036823 0.06394844
-0.07840475 0.19855669 -0.18498932 -0.033721134 -0.011729846 -0.2297554 0.016685346 0.19413383
0.3698587 -0.09697524 -0.26279438 0.056231398 0.23859309 -0.16548853 0.08933115 -0.04541883
0.12428571 0.14576197 0.008493266 -0.19183311 0.019313246 -0.021196792 -0.034480006 0.08340216
0.074150786 0.22115685 -0.17039865 0.1888585 -0.17545559 -0.028735928 0.13842927 0.15182735
-0.077667914 0.118790984 0.06450286 -0.06252374 0.16131444 0.070204034 0.19459838 -0.01594276
-0.24378546 -0.041115433 -0.08110369 -0.044710636 0.04363205 0.09833996 0.1772681 -0.19852081
0.1988136 -0.051698007 0.03253158 0.028444305 0.41166165 -0.2334356 -0.09191961 0.1253929
0.012536169 0.099805646 0.0904768 0.08948916 -0.021237925 -0.052266568 -0.1144812 0.1402972
0.20402695 0.022972507 -0.15026724 0.069909096 -0.06452946 0.006293231 0.28878966 -0.19187252

fc2.bias f4 [64]
00000000: 9429 313e 8df6 233e fd66 6f3c 7d87 033e
00000010: 62a5 093e 8201 6a3d ce9e ba3b ba3b ee3b
00000020: 76c8 173e b335 943d a4d7 a4bc b867 2b3e
00000030: 7d38 0e3e 303f e73d 9361 24bd 6478 203d
00000040: 3174 8a3d df2d 4a3d 370d 863d 1c93 2dbb
00000050: 388c 2c3c 3ede 923d 4d09 ae3d 7786 5f3d
00000060: 0ebe 66bd fe23 963d 49fe 333d e1c1 4c3d
00000070: 3eef 773d 7ffc 6a3d 9ed7 2a3e ce41 bb3d
00000080: 0b94 ba3d 55f4 c43d 2f41 db3d 2b5e d53c
00000090: 30cf 633d 5945 733d 9745 003e 8d87 b03d
000000a0: 3950 8cbd a035 9d3d ff7e e83d a520 1ebd
000000b0: d482 b13d c444 393d aaf5 bf3d 3d03 433d
000000c0: 3f29 ad3d f40f bf3d 41af 5c3d e644 b6bc
000000d0: 1006 2b3d 5bfd b43d 19e4 1f3e 2264 b13c
000000e0: 7169 893d 0e2c 303e 8084 083e f566 f13c
000000f0: bd3f b13d 4064 f63c fde3 0b3e b4b9 113c
0.17301017 0.1601202 0.014611957 0.12844653 0.13441995 0.057130344 0.0056952005 0.0072703036
0.14822564 0.07236805 -0.020122357 0.16738784 0.13888736 0.11291349 -0.040132117 0.039177313
0.06760443 0.049360152 0.06545489 -0.002648539 0.010531478 0.071712956 0.08497868 0.054571595
-0.056333594 0.07331084 0.043943677 0.049989585 0.060530894 0.057369705 0.16683814 0.091434106
0.09110268 0.09616915 0.10705792 0.02604588 0.05561751 0.059392307 0.12526546 0.08619604
-0.06851239 0.07676244 0.113523476 -0.03860535 0.086675316 0.045231596 0.093730286 0.04761051
0.08455133 0.09329215 0.053878073 -0.02224965 0.04175383 0.08837386 0.15614356 0.021654192
0.067095645 0.17204306 0.13331795 0.029468039 0.08654735 0.0300771 0.1366119 0.008894373

fc3.weight f4 [10, 64]
00000000: 95da d3be eb18 6cbe ebe7 d6be c947 26be
00000010: 18b8 f0be 7d01 603e 3b8c 363e b666 ca3d
00000020: 4a71 dbbe bcb7 45be c65c 033e 6868 0fbd
00000030: c683 48be c563 99be 88d8 c23b be72 373e
00000040: 7d1e fb3d fd59 a3be af8e 16be ea70 8e3d
00000050: ea9e 403e c2bb 143e cc21 0b3e 1cc7 fe3d
00000060: fee5 173e f08b 473e 628e 81be 331d a8be
00000070: 3a6a 683e 92a2 483e 3eaa 58be c2ae 2f3e
00000080: b8e6 08be 3652 43be c997 65be af4c a6bd
00000090: c0c1 0abe 502e b1bc b370 2fbe af05 10bd
000000a0: 1ff5 133d 7756 c5be 9da5 b73d 9a9f 7d3e
000000b0: 64bd 7d3e a58d dbbe 0588 35be 9371 353d
000000c0: ea6f 3f3e 039b 6e3e a45c 8ebe 9128 99be
000000d0: 4b91 05bd c8a1 bbbe 01ee 86be ca6b 4a3e
000000e0: 40c6 06bb 36b7 4d3e 650a 7ebd 722e d73d
000000f0: 5c62 e9bb 2853 61be d183 16be 938f edbe
00000100: d78c ca3d ceba f2bd 03c7 0c3e a5ca b8be
00000110: 095c 0f3e 00cd 90be 87b4 a7be b8d6 73be
00000120: 8825 203e 7f9f 883e 272b 66be 5e07 d73d
00000130: bd30 2e3e ff93 a53c 553d b63d 00ff b6be
00000140: da1b 93bd 824a 4a3e 1003 77be ba30 9fbe
00000150: babb b0be 6389 0f3e 46e8 943d a66b a8be
00000160: 3e9f fdbd 157f b1be da08 9cbe 4f20 923d
00000170: fd49 49be 7fc9 a4be e466 0a3d 07f1 5cbe
00000180: f8c3 203e 43ad 173d ad61 413e b6a7 a6be
00000190: 7975 423e 1784 88be c93b 833e dc73 7dbe
000001a0: de87 2bbe 4cfa bd3d d10c 7bbe 7184 57be
000001b0: 44c9 21be b28c 093e 8036 6e3c 82c0 96be
000001c0: 5d0e 84be 28da a3be 1cc1 503e b5d1 8fbd
000001d0: 840d e5be f88b 453e 2368 f73d b00f 3dbd
000001e0: 5c49 09be b8ed f0bd cd36 123e 9640 bf3b
000001f0: 2eb3 f2bd 8571 ab3e 3bfd 793e 2b5a e03d
00000200: f6f9 9ebe 4f8f c6be 5f39 09bd d4ce 91bd
00000210: bee0 22bf 8ae0 d2bd 780d 0d3e 4112 0a3e
00000220: b8b2 b23d 941f cabd 3dc3 c43d 17a8 34be
00000230: 682e 203e 77ed d63c b0a7 fe3d b189 0dbe
00000240: 465c d73d 11d1 1e3e 463a 773e 8795 bfbd
00000250: b3aa 183e bf87 dfbe 0d7f da3c f6a0 dc3d
00000260: 5d04 b0bd de40 083e 82e1 223e fd90 b93d
00000270: 015b 9e3d df5d 39be 14be d5be 9b6a 393e
00000280: ebf8 2a3e b835 14be ea35 d93d 45c4 c9be
00000290: e1db 853d e4a1 0cbe e79d 3b3e 2b83 b2be
000002a0: 3d16 bd3d b6dc 2a3e edbc 6c3a 75c2 92bd
000002b0: ec54 123e e021 d6bc 7b15 99be 57e4 d1be
000002c0: 6ea5 0d3e e14b 56be 5fa7 623d d6a9 8fbd
000002d0: 4e51 2d3e 7223 65be 3c7c 0db9 2b5a b43d
000002e0: 64a4 b8bd c2ea 7f3d 488a 1e3e a523 2a3e
000002f0: 3d33 f13d 2029 9bbe 7b9a c6be f0d4 fa3d
00000300: 4cdd 7bbe eb60 86be e07b 55be d9b3 babd
00000310: cca5 ca3d 71dc 92be ed76 29be 0a63 063e
00000320: f8dd e53d 0e99 73be d89c 55be 22eb 363e
00000330: 36a8 02be 6124 0e3e 9df5 c03d d36d 373e
00000340: c85b 1e3e c3df 9bbd eb09 f9bd 6d87 5a3e
00000350: 4df1 0cbe c4de e5bd 76eb 8c3c e635 083e
00000360: 4463 603e 51b9 17be 4602 3f3e a521 36bd
00000370: 3a03 94be 74bb 193e 7bed 203e 8d04 903d
00000380: 839b 1e3e 75f8 7bbe a323 85be c19c 30be
00000390: 5bed 89be e0b4 913d 64f2 3fbd 921b a7be
000003a0: c351 963d 3652 1a3e 2e50 b7be 3889 87be
000003b0: 54d5 96bd 2b2c fc3d 51cd 243e ac94 1d3e
000003c0: 9f8a 9abe 6224 c1bd b9ae 00be c249 1a3e
000003d0: e784 25be 1c58 a0bd e423 273e 0636 55be
000003e0: e284 0ebe ff64 80bd c295 3d3c 68fd 423e
000003f0: 3b99 0c3e 340f 8abe 8509 a2bc 4e5d fc3d
-0.41377702 -0.2305638 -0.41973814 -0.16238321 -0.47015452 0.21875568 0.17826931 0.09882872
-0.4285987 -0.1930837 0.12828359 -0.03501168 -0.19581518 -0.2995893 0.0059462227 0.17914864
0.122616746 -0.31904593 -0.14702867 0.069551304 0.18810621 0.14524749 0.13587111 0.12440321
0.14833829 0.19486976 -0.25303942 -0.32834777 0.22696772 0.19593266 -0.21158692 0.17156509
-0.13369262 -0.1907433 -0.22421183 -0.08120095 -0.13550472 -0.021628529 -0.17132835 -0.03516167
0.036122438 -0.3854253 0.08967135 0.24767914 0.24779278 -0.42881504 -0.17727669 0.044297766
0.18695036 0.2330132 -0.27805054 -0.29913762 -0.032609265 -0.36646867 -0.26353458 0.19767681
-0.0020564944 0.2008942 -0.06202163 0.105069056 -0.007122321 -0.22004378 -0.14698721 -0.463986
0.09890144 -0.118520364 0.13747792 -0.36092106 0.13999952 -0.28281403 -0.3275492 -0.23812377
0.15639317 0.26684186 -0.22477399 0.10499452 0.1701078 0.020212172 0.08898417 -0.35741425
-0.07183047 0.19754985 -0.24122262 -0.31091863 -0.34518224 0.14017253 0.07270865 -0.3289463
-0.12383889 -0.34667268 -0.30475503 0.071350686 -0.1965713 -0.3218498 0.03378953 -0.2157632
0.15699756 0.03703047 0.18884917 -0.32549828 0.18990125 -0.26663277 0.2563155 -0.24751228
-0.16751048 0.09276256 -0.24516608 -0.21046616 -0.15799433 0.13432577 0.014539361 -0.29443747
-0.25792208 -0.32002378 0.20386165 -0.0702242 -0.44736874 0.19291675 0.120804094 -0.04615754
-0.1340689 -0.11764091 0.14278717 0.0058365567 -0.11850582 0.33485046 0.24413006 0.10954698
-0.3105008 -0.3878121 -0.03350198 -0.071195275 -0.6362418 -0.10296734 0.13774669 0.13483526
0.08725494 -0.09869304 0.09607551 -0.17642246 0.15642703 0.026236279 0.124343276 -0.13822056
0.10515647 0.1550944 0.24143323 -0.09354692 0.14908867 -0.43658254 0.02667191 0.10772888
-0.08594582 0.13305995 0.15906337 0.090608574 0.07732201 -0.18102215 -0.4174658 0.18107073
0.16696517 -0.14473617 0.106059864 -0.39407554 0.06536079 -0.13733631 0.18321954 -0.34865698
0.09232757 0.16685757 0.00090308377 -0.07165996 0.14290208 -0.0261392 -0.298992 -0.40994522
0.13832638 -0.20927383 0.0553354 -0.070148155 0.16925547 -0.22376803 -0.00013493089 0.08806261
-0.0901573 0.062479742 0.15482438 0.1661516 0.11777351 -0.30304813 -0.38789734 0.12247646
-0.24596137 -0.26245818 -0.20848036 -0.091163345 0.098949045 -0.28683808 -0.16549273 0.13123718
0.11223978 -0.23788854 -0.20860612 0.17863134 -0.1275948 0.13881065 0.09421847 0.17912988
0.154647 -0.076110385 -0.12160095 0.21340723 -0.13763924 -0.1122413 0.01720212 0.1330181
0.21912867 -0.14816786 0.18653211 -0.04446568 -0.28908712 0.15012914 0.15715592 0.07032118
0.1548901 -0.24606498 -0.2600375 -0.17247297 -0.269389 0.07114577 -0.04686202 -0.32638222
0.073398136 0.15070423 -0.3580336 -0.26471877 -0.07364908 0.12313112 0.16093947 0.15388745
-0.30183885 -0.094307676 -0.12566651 0.15067199 -0.1616398 -0.078293055 0.16322285 -0.2082139
-0.13917878 -0.062692635 0.01157135 0.1904198 0.13730328 -0.26964724 -0.01977993 0.12322484

fc3.bias f4 [10]
00000000: 5291 d1bd b7fe 0b3d a9f7 d1bd 5be3 84bd
00000010: 0136 033d 1a44 59bd a2f1 b93c 8cf0 c0bc
00000020: 3de2 01be 4282 a6bd
-0.10232796 0.034178462 -0.102523156 -0.06488677 0.032033924 -0.053043462 0.022698227 -0.023552202
-0.1268396 -0.081303135
